models/dl/mlp_enhance/baseline/model.pt (torch, 48967 bytes, 13 tensors)

net.0.weight f4 [128, 14]
000000 cd 71 ff 3e 02 c4 4d bc 89 91 b3 bc 43 fc 48 bc
       0.4989151 -0.012558939 -0.021919983 -0.012267175
000010 5f d1 5b bb 56 68 d5 3b 39 67 52 bf cc e5 3d 3f
       -0.0033541543 0.006512682 -0.82188755 0.7417877
000020 6b 27 da bd 5c 91 9d bc 44 5e 96 bd 30 1b b8 bd
       -0.1065205 -0.019234352 -0.073421985 -0.089895606
000030 0b 57 2d 3c b8 86 de 3d 0a 45 65 bb da 99 43 3d
       0.010579835 0.10865539 -0.0034983777 0.047754146
000040 8d 0c 86 bc 57 59 13 3d 03 63 f4 bb 5e 1a 36 3c
       -0.016363407 0.035973873 -0.007458092 0.011114685
000050 bd 24 0f 40 8e 21 55 3e 63 93 0c bc fd fa 11 bb
       2.2366173 0.20813581 -0.008580062 -0.0022274845
000060 75 5c e8 3c 86 a6 35 bf 4d bc 16 bc 89 73 87 be
       0.0283644 -0.7095722 -0.009200168 -0.26455334
000070 ae 02 a2 3c 6d 60 1b 3f b3 fd ee be 6b 6b bd be
       0.019776668 0.6069401 -0.46677932 -0.36996016
000080 c3 da dc bd 26 1d 27 3e 12 5d 1c 3d 58 24 f8 bc
       -0.10783913 0.16319713 0.038174696 -0.030290768
000090 0b 4f 2d bf b8 bb 84 bd a9 f4 50 be 07 e4 30 be
       -0.67698735 -0.06481117 -0.2040583 -0.17274486
0000a0 18 6b f2 3d 4a 74 58 bd 23 9c 9e 3b 44 0e 58 3b
       0.11836833 -0.052845277 0.0048403903 0.0032967487
0000b0 61 9c 6c 3b f2 1e 32 bc d8 dc a3 bb bf 77 1f bd
       0.0036103951 -0.010871636 -0.005000692 -0.03893256
0000c0 2e 27 96 bc c2 0b 26 3c 2b 45 06 bd d9 4d 7e bf
       -0.01832923 0.010134639 -0.032780807 -0.99337536
0000d0 4f 27 86 ba ee 0d f4 3c e5 4f 0d 3d fa d2 37 3f
       -0.0010235104 0.029791798 0.03450002 0.718063
0000e0 fb 9c f2 3d 1e 5a 47 bd 9e 61 73 bf 4c bc d2 3d
       0.11846348 -0.048669927 -0.95070827 0.10289821
0000f0 6f f2 9b bd 02 c4 31 3c ff 0e 86 3c 83 11 86 3d
       -0.076146 0.010849955 0.016364573 0.06546309
000100 b9 d2 1d 3e f7 4c 55 3d 53 42 69 bc 5b 88 e1 be
       0.15412416 0.052075353 -0.014237004 -0.44049343
000110 24 5f 25 3f 78 ab 85 be f8 61 cb 3e 66 fc 9f be
       0.645983 -0.26107383 0.39723182 -0.31247252
000120 bc ce fd bd dd 05 70 be 02 69 fd 3d 38 d8 9c 3e
       -0.12392947 -0.23439737 0.12373544 0.30633712
000130 d1 aa bb be 72 e7 06 be 95 04 4a 3e 5b 83 17 3f
       -0.3665376 -0.13174227 0.1972831 0.5918481
000140 1b 9b 7f 3d ed ee e2 bd 03 99 0c 3d 13 0f 28 3e
       0.06240378 -0.11080728 0.03432561 0.16412
000150 97 6e b0 bc 04 48 b1 3e 87 8d fc 3d 62 3c 01 3e
       -0.021537108 0.34625256 0.12331682 0.1262069
000160 cc d4 a8 bf 92 07 95 bd dc f1 2a be ba 7b 5c bb
       -1.318994 -0.072768345 -0.16693825 -0.0033643083
000170 af e9 19 3e 1f b0 fc bd 47 5e 85 3d 5b e0 e5 3d
       0.1503055 -0.1233828 0.065121226 0.11224433
000180 44 a0 c0 bd 92 9b c2 bc 38 9a 55 be 41 c5 22 3f
       -0.09405568 -0.023755822 -0.20859611 0.63582236
000190 f1 48 a4 bd ea 8f 4e be 2f 73 b3 bd 87 bf af 3e
       -0.08021725 -0.20172086 -0.08762204 0.3432581
0001a0 96 32 39 bc 74 e3 dd be be 53 35 3e a7 22 32 be
       -0.0113035645 -0.43337595 0.17707726 -0.17396031
0001b0 46 2d 56 3e ca 41 81 3e 22 87 17 3d 57 8e 28 be
       0.20915708 0.25245506 0.036994107 -0.16460548
0001c0 22 e7 7c 3e e0 83 db 3d df 47 d7 be 1b db c5 3e
       0.24697545 0.107185125 -0.4204702 0.38643727
0001d0 7c cd b7 be 13 70 cb 3c f6 c9 d7 be af 6a dd bd
       -0.3589896 0.024833715 -0.4214627 -0.10811364
0001e0 3c 7e 05 bf c0 b1 9c bd 2c 5f 9d bd 98 69 4b 3d
       -0.52145743 -0.076510906 -0.07684168 0.04966125
0001f0 18 a2 b3 3d 3d 66 72 bd 72 b2 d8 3c ab cd a1 3c
       0.08771151 -0.059179533 0.026452277 0.01975139
000200 2e 2a 80 bb 0c 3b e0 3b c7 ce 0e 3c b1 5d 19 3c
       -0.003911278 0.0068429764 0.008716292 0.009360717
000210 b8 10 8d 3f ea 1b b5 bd a2 41 28 bd bc 4a 0a bf
       1.1020727 -0.08843215 -0.041078217 -0.54020286
000220 46 74 a0 bd 3b a2 0a 3d 5d 8f 8c be d4 ef e5 3e
       -0.078346774 0.03384612 -0.27453128 0.44909537
000230 13 41 85 be 96 7e a8 3d 58 03 0a 3e 93 e9 07 be
       -0.2602621 0.08227269 0.13477838 -0.13272695
000240 16 71 c3 bf e0 0e 8d bc 65 cb 34 be 0f 00 d8 3d
       -1.5268886 -0.017219007 -0.17655714 0.10546886
000250 5b 66 67 3d af f2 20 3c 16 6d aa 3d c2 ef 28 3e
       0.0564941 0.009823485 0.08321588 0.1649771
000260 7f 38 55 3d c5 8a 97 3d ed c2 98 be ca ec 63 bb
       0.052055832 0.07399515 -0.29836217 -0.0034778588
000270 2b ec 85 3d 5d b1 88 bd 1e 67 91 bf 70 71 09 bd
       0.06539186 -0.06674454 -1.1359594 -0.033555448
000280 4d df c4 3e 4e 2f 1b bf 80 8e 43 bd 1c 73 45 be
       0.38451615 -0.60619056 -0.04774332 -0.19282192
000290 31 78 22 be 87 5f 6e 3e 8e 53 66 3d de 65 f8 bb
       -0.15866162 0.23278628 0.056232028 -0.007580503
0002a0 2d 3f c8 bc 02 ae 90 bf 84 6a 36 bf 29 38 31 3d
       -0.024444187 -1.1303103 -0.7125628 0.04326645
0002b0 4c b5 85 bd a0 98 9b bc b3 25 84 3b 2c a7 a2 3d
       -0.0652872 -0.018993676 0.0040328144 0.07942042
0002c0 76 06 44 3e 67 9e 1d 3c f9 bb 98 bd 29 8d 08 3d
       0.1914309 0.009620286 -0.07457728 0.033337746
0002d0 c1 c6 b3 3e 35 d0 f7 bc 9d 1a 07 3e 92 95 8e 3e
       0.35112575 -0.030250648 0.13193746 0.27848488
0002e0 64 17 28 3e cc 12 b9 be b7 33 63 bf 83 1d 5c 3e
       0.16415173 -0.36147153 -0.88750786 0.21495633
0002f0 ab d2 8b be bc 11 04 be 69 31 2b be a3 73 a7 3c
       -0.27309164 -0.1289739 -0.16718067 0.020440882
000300 22 ae 9e bc 9c a3 04 3c 24 1c 85 3c 17 60 89 bd
       -0.019370142 0.008095648 0.01624877 -0.06707781
000310 04 e3 9b bb 62 3c e7 3c c6 e1 ed bd 2a 2b ec 3c
       -0.004757287 0.028227035 -0.116153285 0.028829176
000320 a8 fd d0 bc 95 9b 7c bc a1 b2 a7 3f c5 cc ba 3b
       -0.025511578 -0.015417953 1.3101388 0.00570068
000330 87 a5 95 be 4c ac fa 3e 86 0d 46 be fc 1f 1f be
       -0.2922785 0.48959577 -0.19341096 -0.15539545
000340 11 21 07 bd 75 45 be 3d 94 44 0e 3f f2 fa 93 3e
       -0.03299052 0.092905916 0.5557339 0.28902394
000350 29 28 83 3e ed 3a e9 3d ae d8 54 3e 0f f9 8f be
       0.25616577 0.11388192 0.20785782 -0.28119704
000360 ae d8 fe bd 44 e9 4d 3d 6b 3e 06 bf 0c 62 ea 3b
       -0.12443672 0.050271288 -0.5243899 0.0071528014
000370 18 69 87 bd 07 6e 66 3e 40 53 c1 be d0 5a c7 bd
       -0.06611842 0.2250291 -0.37758827 -0.09734118
000380 4f 42 30 bc e1 5e 16 3d 6a ad 5a 3b fb 45 79 3b
       -0.010757997 0.036711577 0.0033367523 0.0038036096
000390 d2 e0 0d bc 3d 15 a5 bb ba fd 54 3c df 27 58 bb
       -0.008659558 -0.005037932 0.012999946 -0.003298275
0003a0 d0 f8 5f bd 72 5f 54 bf 72 c1 64 3c 88 c0 7b 3c
       -0.054680645 -0.8295814 0.013962137 0.015365727
0003b0 8f 2f b3 3b 0f b4 1a 3f 94 4a 22 ba 5f bf 5b bc
       0.005468316 0.60431 -0.00061909226 -0.013412326
0003c0 71 e6 eb 3b ba 57 19 3c d5 76 2f bd 5a db bd bb
       0.0071991016 0.009359295 -0.042837936 -0.005793971
0003d0 76 b0 31 3c 97 64 fb 3c ea 86 b9 bd 5d a5 a8 3f
       0.010845294 0.030687613 -0.09058936 1.3175465
0003e0 78 0e d4 bb 49 7f 4e be 7c b9 3b 3e 14 03 a6 be
       -0.0064714514 -0.20165743 0.18332475 -0.32424223
0003f0 a6 30 7c be 34 66 f3 3e 47 1b 21 3e cf 0f 87 3e
       -0.24627933 0.47538912 0.15733062 0.26379248

net.0.bias f4 [128]
000000 50 2f 6d be 31 02 32 be f0 7e b1 bd 77 40 64 bd
       -0.2316258 -0.17383648 -0.086667895 -0.05572554
000010 00 20 e0 bb af 2f d7 bd 0c 74 c9 bd 7f 12 3d bd
       -0.006839752 -0.10507142 -0.09836587 -0.046160217
000020 ab f4 37 3d 07 db 12 3e 71 1a 2c 3e 89 1f 1f bd
       0.044911068 0.14341365 0.16806962 -0.038848434
000030 f5 b4 0b be 7b 9c 3b 3e 88 d6 2b be fd b6 0f 3e
       -0.13643248 0.18321411 -0.16781056 0.14034648
000040 ca 3a 2d be 03 e4 89 bd a1 d0 4c 3d 63 fb ff 3c
       -0.16916957 -0.06732943 0.05000365 0.0312478
000050 a5 27 40 3e 2e d4 36 3e 7d 2e 93 3d 79 c0 55 3e
       0.18765123 0.17854378 0.07186601 0.20874204
000060 a4 db 55 be db a0 71 3e dd 52 52 be fe 95 18 3d
       -0.20884567 0.23596518 -0.20539422 0.03725242
000070 43 dd 50 bc df 25 97 3d 79 88 ae bd 24 3e b0 bd
       -0.012748065 0.0738027 -0.08522124 -0.086056024
000080 62 c3 3c 3e cc 94 48 be 07 01 1e 3e db 80 3f 3d
       0.18433908 -0.19588012 0.1543008 0.046753746
000090 49 91 64 be bc df 30 3e 77 c0 e2 3d 4d e2 a9 bc
       -0.22321047 0.17272848 0.11071866 -0.020737791
0000a0 23 28 21 3e b6 e1 93 3c 2e ef 68 3e 95 09 f8 bd
       0.15737967 0.018051963 0.2274749 -0.121112026
0000b0 e1 fe 8a 3d 7d 1b 14 be 60 44 45 3e 0c e2 55 3e
       0.067868955 -0.14463611 0.19264364 0.20887011
0000c0 d9 5c 7e 3e 4d 98 70 3d 1f e0 76 3d 81 a2 99 bd
       0.24840106 0.058738995 0.060272332 -0.07501698
0000d0 3d 43 77 3d e5 81 da 3d a4 7b 67 be a2 3f 9a bd
       0.060366858 0.10669307 -0.22605759 -0.07531668
0000e0 e3 42 f0 3d f9 2e 2f 3e 43 80 61 be 7e 89 a9 3d
       0.11731508 0.17107762 -0.22021584 0.08278178
0000f0 44 fa 81 bc c2 5e 25 3e 67 7e 22 3e 43 b1 7e be
       -0.015866406 0.16149428 0.15868531 -0.24872307
000100 c7 bc 35 3e 7c d3 99 bd be 57 ad 3d 87 4e c4 3d
       0.17747794 -0.075110406 0.08464001 0.095852904
000110 f8 50 26 3e 21 63 5d be db 9a a3 bd fc f3 34 3e
       0.16241825 -0.21619846 -0.07988521 0.17671198
000120 5c f8 a3 3b a3 03 b7 bd 05 23 87 3c 17 ca 74 be
       0.005003972 -0.089362405 0.01649619 -0.23905216
000130 be 1d b5 39 3c 58 39 bd 76 58 e9 bd 10 13 4a 3d
       0.0003454517 -0.045250162 -0.11393826 0.049334586
000140 ee 17 92 bb a8 00 26 3d d2 67 e5 bd ea 15 d6 bd
       -0.004458419 0.04052797 -0.11201443 -0.104533985
000150 80 26 e1 bb f7 7f 94 bd ed 7a 4b be 9b 9e 3e 3e
       -0.0068710446 -0.0725097 -0.19871111 0.1861519
000160 d7 9e b4 3c 99 ac 81 bd db f4 74 3d e5 2d 26 3e
       0.022048397 -0.063317485 0.059803825 0.16228445
000170 25 b3 43 3e 5e 08 1d bc 01 43 da bd 83 fd 89 be
       0.19111307 -0.009584514 -0.10657311 -0.26951227
000180 d4 44 0e 3e 94 d2 18 3e 00 87 d1 bd b5 70 bc 3d
       0.13893443 0.14924079 -0.10230827 0.09201185
000190 c3 e4 74 3e 78 99 30 3e 8a b6 70 bd d1 89 ed 3d
       0.2391539 0.17246044 -0.058767833 0.11598552
0001a0 0f 36 0a 3d 8c f2 d5 3d 39 75 e0 3d 0a 0a e6 bd
       0.03374296 0.10446653 0.109598584 -0.112323835
0001b0 d0 ae 3c be 28 f7 81 be fd 11 04 3c f8 17 bd 3d
       -0.1842606 -0.25383878 0.008060929 0.09233087
0001c0 07 80 f5 bd 0f a3 49 be 7c 1a 47 3e 7b 6c 03 be
       -0.1198731 -0.19691108 0.19443697 -0.12834351
0001d0 a1 24 87 3e 6a 38 86 be 0d 54 db 3d 84 e0 13 3e
       0.26395133 -0.26214916 0.10709391 0.14441115
0001e0 bd 9c 80 bc 8b e3 cc bd 05 df 82 be aa fd f5 3d
       -0.015699739 -0.10004338 -0.25560775 0.12011273
0001f0 54 3e 55 3c 09 b1 33 3e fa 85 6a be 19 0a 4f be
       0.013015348 0.17548002 -0.2290267 -0.20218696

net.1.weight f4 [128]
000000 07 f1 28 3f 01 a0 9c 3f 58 ba 38 3f 77 ac 82 3f
       0.6599278 1.2236329 0.7215934 1.0208882
000010 7d 47 13 3f f7 e9 d5 3e d9 7d 0b 3f 44 24 de 3e
       0.5753096 0.41780064 0.54488903 0.43387043
000020 84 4e 19 3f 88 b0 80 3f 84 21 33 3f 54 da 28 3f
       0.5988543 1.0053873 0.69973016 0.6595814
000030 de 98 7c 3f 14 2a 1b 3f 2f aa 8b 3f 6d 26 be 3e
       0.98670757 0.6061108 1.0911311 0.37138692
000040 70 66 6b 3f c9 98 5c 3f f4 2c f4 3e 2e 44 b8 3e
       0.9195318 0.8617063 0.47690547 0.35989517
000050 ff 77 4d 3f 94 ed 22 3f a1 3d b9 3f cb c7 70 3f
       0.80261225 0.63643765 1.4471933 0.9405486
000060 3e 23 5e 3f e2 09 56 3f 8f ee 44 3f 71 cc 70 3f
       0.86772525 0.8360883 0.7692651 0.9406195
000070 e0 eb 33 3f c8 31 a2 3f fd aa a0 3f 81 05 3c 3f
       0.7028179 1.2671442 1.2552181 0.734459
000080 8f c7 f1 3e 48 5f 5d 3f 6f a9 68 3f b3 aa 43 3f
       0.47222564 0.8647351 0.90883535 0.7643234
000090 ff 85 7a 3f c6 ea 41 3f a9 61 87 3f 0f 32 4a 3f
       0.9786071 0.7574886 1.0576679 0.78982633
0000a0 1b 37 34 3f 41 1c 8e 3e 69 d7 7f 3f af c0 3c 3f
       0.70396584 0.2775593 0.99938065 0.7373151
0000b0 8c 16 6b 3f 68 2d 38 3f d0 e0 ef 3e 46 fd 95 3f
       0.9183128 0.71944284 0.46851206 1.1717918
0000c0 62 79 a2 3f bf bb 06 3f da 62 a7 3f ac 2d 3f 3f
       1.2693293 0.5263023 1.3077042 0.74679065
0000d0 61 0f 57 3f 13 58 51 3f 77 56 77 3f a0 e7 74 3f
       0.8400784 0.81775016 0.9661631 0.9566593
0000e0 25 c1 49 3f 8e 80 f8 3e 87 66 3e 3f 70 b2 6f 3f
       0.7881034 0.4853558 0.74375194 0.9363165
0000f0 00 7e 06 3f 12 c5 a0 3e 14 33 1c 3f 10 ae 8f 3f
       0.5253601 0.31400353 0.6101544 1.1224995
000100 b4 7f 51 3f 8d f1 f0 3e e7 b1 13 3f ac 75 23 3f
       0.81835485 0.4705929 0.5769333 0.6385143
000110 74 4b ae 3f c4 bc 8a 3f e2 e8 84 3f c0 42 66 3f
       1.3616776 1.0838857 1.038357 0.899456
000120 06 fd 54 3f 2f f1 58 3f a5 04 83 3f a5 10 f3 3e
       0.83198583 0.84743017 1.0235792 0.47473636
000130 85 ea 2d 3f 14 89 82 3f b4 63 8d 3f ea 9a cd 3e
       0.67935973 1.0198083 1.1046052 0.40157253
000140 d9 47 e7 3e 53 3f 6b 3f 69 bb 7f 3f 0e 7c 8b 3f
       0.45172003 0.918935 0.9989534 1.0897233
000150 a3 49 2d 3f 52 1d 65 3f b1 c5 30 3f d3 53 9e 3f
       0.67690486 0.89497864 0.69051653 1.2369331
000160 1e 72 04 3f ec 10 64 3f 38 aa 0d 3f bd 2b 6d 3f
       0.5173663 0.8908832 0.5533786 0.92644864
000170 74 51 94 3f 60 2b 05 3f ce 54 0b 3f c0 7e 65 3f
       1.1587358 0.5201931 0.54426277 0.8964653
000180 69 08 84 3f de ee 66 3f 43 e0 74 3f 77 d8 16 3f
       1.0315067 0.9020823 0.95654696 0.5892405
000190 ea 4e 7f 3f 39 8a 1c 3f f7 fa ac 3f de 40 14 3f
       0.9972979 0.6114841 1.3514088 0.5791148
0001a0 4e fc 30 3f 4c 57 12 3f 1d d0 2c 3f e1 de 8e 3f
       0.69134986 0.57164454 0.67505056 1.1161767
0001b0 1b e0 6a 3f bb 71 67 3f 9b dc 04 3f 59 7c 9a 3f
       0.9174821 0.90407914 0.5189912 1.2069198
0001c0 61 4e ef 3e fd 89 10 3f 60 12 0f 3f 04 e8 18 3f
       0.46739486 0.56460553 0.55887413 0.5972903
0001d0 f6 43 0f 3f 3d 3a 72 3f f3 c0 08 3f 28 fd 90 3f
       0.55963075 0.94620115 0.5341942 1.1327257
0001e0 7b 1a 3b 3f 1d c0 7c 3f ad f8 2b 3f a5 26 22 3f
       0.7308728 0.9873064 0.67176324 0.63340217
0001f0 28 71 9b 3f f3 34 7a 3f 78 77 12 3f 09 65 66 3f
       1.2143908 0.97737044 0.57213545 0.8999792

net.1.bias f4 [128]
000000 41 ff 4d bc 6f b0 04 bf 9e bc e2 bd d8 37 35 bf
       -0.012573064 -0.51831716 -0.11071132 -0.70788336
000010 2c 85 11 be e8 f4 90 be 7c dc b1 be 39 94 d4 be
       -0.14210957 -0.2831185 -0.3473853 -0.41519335
000020 91 ac c0 be 52 7f 11 bf 09 80 db be 84 db d4 be
       -0.37631658 -0.568349 -0.4287112 -0.41573727
000030 7c b1 a4 be aa 7a b3 be 13 5b 27 bf d8 37 65 bd
       -0.3216666 -0.35054523 -0.65373343 -0.05596146
000040 7c d4 0d bf 47 67 66 bf fa 42 02 bf d2 db e7 bc
       -0.5540235 -0.9000134 -0.5088345 -0.02830306
000050 a2 a6 3c bf 78 08 09 be fc 0c d9 be 3f 24 55 be
       -0.7369176 -0.13382137 -0.4239272 -0.20814608
000060 24 71 2b bf 9a 95 40 bf fd 4a 36 bd e6 bf b4 be
       -0.66969514 -0.75228274 -0.04450511 -0.35302657
000070 db dc e3 be c8 90 c2 be be 30 e9 be 37 b8 bf bd
       -0.44504437 -0.38001084 -0.45545 -0.09361308
000080 aa ec 9e be 83 9a c5 be c8 8e f9 be a1 ea 42 bf
       -0.31039935 -0.38594446 -0.48741746 -0.76139265
000090 3f 76 50 bf 7b 00 02 be c7 98 b5 be cb 0d c6 be
       -0.8143043 -0.12695496 -0.35468122 -0.38682398
0000a0 83 1d 2a be 5a 66 27 bd e2 26 37 bf eb 47 06 be
       -0.1661282 -0.040869094 -0.71543705 -0.13113372
0000b0 1e 7f 40 bf 51 38 2c bf 69 27 a1 be ca e0 01 bf
       -0.75193965 -0.6727343 -0.3147538 -0.50733626
0000c0 0a cf b6 be 0a 2c 12 bf af 1a c3 be 80 75 b8 bc
       -0.35704833 -0.5709845 -0.38106295 -0.022516966
0000d0 37 f0 f9 bd 6d 5e 15 bf 92 71 44 bf 32 50 ee bc
       -0.122040205 -0.5834721 -0.76735795 -0.029090974
0000e0 7c 11 fc bd 6d bb 34 bf 07 df 81 be 05 3b 16 bf
       -0.123080224 -0.7059849 -0.2536547 -0.58683807
0000f0 20 a8 d3 be 31 89 fd bc aa e1 bd 3b 97 3a f2 be
       -0.41339207 -0.030949207 0.0057947235 -0.47310326
000100 ca 0f d8 be bd b5 d6 bc e5 76 ce be b2 7b ee bd
       -0.42199546 -0.026209706 -0.40325084 -0.11644687
000110 78 ac ba be 78 63 9a be 32 f7 b0 be 9b d7 03 bf
       -0.36459708 -0.30154014 -0.34563595 -0.5150086
000120 8f 73 c6 be 9e ad 2b bf fb b4 50 bf 5f 3c c5 be
       -0.3876004 -0.67061794 -0.81526154 -0.38522622
000130 d4 5c 53 be 8f 03 4c bf c4 db 03 bf f4 ec 40 bc
       -0.2064088 -0.7969293 -0.5150721 -0.011775244
000140 7d 2b 2b 3d 5f d9 b6 be 28 3b fd be 51 39 2a bf
       0.04178952 -0.35712716 -0.49459195 -0.6649371
000150 97 f4 04 bf 2a 62 46 bf c2 5c 00 bf 58 14 d3 be
       -0.51935714 -0.77493536 -0.5014154 -0.4122646
000160 84 1b ab bd 6c 22 34 bf fe 49 54 bf 42 dc f6 bc
       -0.083548576 -0.70365024 -0.82925403 -0.030134324
000170 1e 4a 29 bf 66 3c 92 be e5 eb e1 be 57 39 9e be
       -0.6612872 -0.28561705 -0.44125286 -0.30903122
000180 70 33 a8 be fc f0 03 3e 8d 79 fa be f0 81 12 be
       -0.32851744 0.12884897 -0.4892086 -0.1430738
000190 44 48 44 bf b1 50 e6 be 5b 01 c6 be ce 74 12 bf
       -0.7667277 -0.44983438 -0.3867291 -0.5720948
0001a0 04 5b 0a bd 46 33 11 be 0d a4 16 bf 7a 1b be be
       -0.033778206 -0.14179716 -0.5884407 -0.37130338
0001b0 20 90 f2 be 2a d9 01 bf af ca 4c be e1 5e 14 bf
       -0.47375584 -0.5072199 -0.19999193 -0.57957274
0001c0 25 14 ca bd 23 c8 5b be 93 6e 8b 3c 7b 33 a5 bc
       -0.098671235 -0.21463065 0.0170205 -0.02016615
0001d0 c6 9c 43 bf d3 00 98 be 3d a1 80 be 89 e7 9c be
       -0.7641109 -0.2968813 -0.25123015 -0.30645397
0001e0 7e 9d bb be b7 b7 9b be 29 29 19 be 10 b3 14 be
       -0.36643595 -0.304136 -0.14957108 -0.14521432
0001f0 d2 df be be fe 91 9c be 31 39 a3 3d 91 cf 47 be
       -0.37280136 -0.30580133 0.07969893 -0.19512774

net.1.running_mean f4 [128]
000000 40 af 62 be 75 68 34 be 24 39 b8 bd af b5 68 bd
       -0.22137165 -0.17617972 -0.08995274 -0.056813892
000010 89 b1 55 3c 34 6d d4 bd a7 ca a6 bd 50 0f 63 bd
       0.013042816 -0.10372391 -0.081441216 -0.055434525
000020 3c cd 80 3d 4a 8b 10 3e 5d 9a 39 3e e8 c9 10 bd
       0.06289145 0.14115635 0.18125291 -0.035348803
000030 c2 3e 01 be 7a 2d 3a 3e 02 5f 24 be 52 65 14 3e
       -0.12621596 0.1818141 -0.16051868 0.14491776
000040 89 de 2e be 71 ea 69 bd 0c ef 2a 3d fa ee 4e 3d
       -0.17077078 -0.057108346 0.04173188 0.050520875
000050 88 6d 43 3e d6 17 45 3e a9 1b 9d 3d 8a fa 60 3e
       0.19084752 0.19247374 0.076712914 0.21970573
000060 b8 d1 48 be 87 65 7f 3e 48 13 44 be ad a6 ca 3c
       -0.19611251 0.24941073 -0.1914798 0.02473768
000070 bd ce ac 3a 7e af 98 3d 76 86 b5 bd fb 8e c9 bd
       0.0013184171 0.074553475 -0.08863537 -0.098417245
000080 30 25 35 3e 93 c4 53 be 3a 53 0a 3e 5d a5 23 3d
       0.17689967 -0.20680456 0.13508311 0.039952625
000090 0c 7f 6c be d0 28 1e 3e dc d8 a7 3d 88 ef b7 bc
       -0.2309534 0.15445256 0.081956595 -0.022453085
0000a0 d7 0f 2e 3e 05 cc 0e 3d 74 48 66 3e 9b 57 13 be
       0.1699823 0.034862537 0.22488576 -0.14388888
0000b0 7a e5 8c 3d 08 73 0f be 44 d9 33 3e 3a e5 35 3e
       0.06879707 -0.14008725 0.17563349 0.17763224
0000c0 51 9e 80 3e 63 7e 3d 3d fe b3 77 3d 81 da 6f bd
       0.25120786 0.04626311 0.06047439 -0.05855799
0000d0 8f 70 53 3d e2 c2 bd 3d 5f 2e 51 be 89 c5 76 bd
       0.051621016 0.092656866 -0.20427845 -0.060246978
0000e0 7c d4 db 3d 2e f7 1e 3e 89 3a 60 be 85 c4 98 3d
       0.107338876 0.15523979 -0.2189733 0.07459358
0000f0 a2 9d 07 bc 16 01 33 3e a5 17 1c 3e 2c 32 7b be
       -0.008277329 0.17480883 0.15243395 -0.24530858
000100 ca 84 1b 3e ed 54 51 bd c1 08 98 3d 7b 5b ae 3d
       0.15187374 -0.051106382 0.07423545 0.08513542
000110 f0 5d 2d 3e 8b b2 7d be d0 82 f3 bd 4f 87 33 3e
       0.16930366 -0.2477514 -0.11890185 0.17532085
000120 04 98 5a bc 66 d4 de bd c6 58 00 3c ab 5c 6a be
       -0.013341907 -0.108803555 0.007833665 -0.22886913
000130 95 26 b5 3b c6 c2 5a bd 4e 75 e9 bd 5c 9f 81 3d
       0.005528281 -0.053408407 -0.11399327 0.063292235
000140 ec b2 97 3a b4 34 ab 3c e1 8c f5 bd c8 2a d8 bd
       0.0011573709 0.020899154 -0.11989761 -0.10555035
000150 06 e0 90 bb 85 c8 61 bd ee 9a 42 be 30 35 38 3e
       -0.004421237 -0.05512287 -0.19004413 0.1798904
000160 f7 cf a7 3c c2 0d 64 bd a9 f5 8b 3d 77 c6 30 3e
       0.020484908 -0.055677183 0.06833965 0.17263208
000170 d2 b7 37 3e 19 b4 24 3c 57 e9 bf bd 4b 41 96 be
       0.17941216 0.010052704 -0.09370678 -0.2934669
000180 91 eb dc 3d 1f bd 04 3e 57 f1 fb bd 59 89 dc 3d
       0.10787118 0.12962769 -0.12301891 0.107683845
000190 31 dd 7a 3e 7b 98 3e 3e e8 6d 5e bd 91 ab f9 3d
       0.2449844 0.18612854 -0.054304034 0.12190927
0001a0 10 d1 b6 3c 23 11 e6 3d 9b 08 d3 3d 7e 94 15 be
       0.022316486 0.11233737 0.10304376 -0.14607427
0001b0 e6 1d 41 be 28 aa 84 be 4b 61 a2 3c 3b 81 c3 3d
       -0.18859062 -0.2591107 0.019821784 0.09546133
0001c0 52 34 11 be 3d 03 3c be dd ed 50 3e a7 b4 04 be
       -0.14180115 -0.1836061 0.20403238 -0.12959538
0001d0 9d ac 87 3e b6 4a 8b be dc e5 bd 3d e2 98 0f 3e
       0.2649888 -0.27205437 0.09272358 0.14023164
0001e0 0a a9 49 bc e2 08 ff bd 02 47 7d be d4 2c d0 3d
       -0.012308368 -0.12452866 -0.24734119 0.101648
0001f0 e0 78 7c 3b bb c3 2c 3e 4d 7a 64 be 90 60 72 be
       0.0038524196 0.1687154 -0.22312279 -0.23669648

net.1.running_var f4 [128]
000000 94 90 d4 3f 61 99 b1 40 fc 5a f9 3f 13 ec 43 3f
       1.6606622 5.549973 1.9480891 0.76532096
000010 a0 e2 83 3f 5f c0 44 3f bc f0 09 40 83 90 35 3f
       1.0303535 0.76856035 2.1553183 0.7092363
000020 ee 83 28 3f a8 d4 be 3f 03 c0 27 40 4d ae d3 3f
       0.6582631 1.4908648 2.6210945 1.6537567
000030 57 d7 a1 3f 29 3c 97 3f 9d cc 16 40 b8 fe 53 3f
       1.2643842 1.1815234 2.3562386 0.82810545
000040 d5 00 08 3f 18 39 ba 3f 2f 28 4c 3f fb 7b b7 3f
       0.5312627 1.4548674 0.79748815 1.4334711
000050 ec b2 01 3f af c6 56 3f 8b cc 4e 41 52 00 ca 3f
       0.5066364 0.8389692 12.924937 1.5781348
000060 07 7f 22 40 a5 3d 77 3f b8 92 67 3f 44 c8 60 40
       2.5390031 0.9657844 0.9045825 3.5122232
000070 82 dd ed 3f 43 d2 0b 41 7d e7 ea 40 fa ee af 3f
       1.8583224 8.738833 7.340758 1.3744805
000080 da 1a 8f 3f 3d 69 58 3f 49 74 f0 3f 63 2f 08 40
       1.118007 0.8453558 1.8785487 2.1278923
000090 7e 6f 50 3f 88 89 0c 40 2c 2b a3 40 43 8e f0 3e
       0.81420124 2.1958942 5.09902 0.46983537
0000a0 1b 99 1d 40 35 d8 22 3f 98 95 88 3f 6a 81 c6 3f
       2.4624698 0.63611156 1.0670652 1.5508244
0000b0 8a 85 0b 40 74 8e 57 3f 5e d9 d5 3f 68 c5 b8 3f
       2.1800256 0.8420174 1.670696 1.4435244
0000c0 c1 9c 1a 41 4c ba ac 3f 73 9e c2 40 5b 81 f2 3f
       9.66327 1.3494353 6.081842 1.8945726
0000d0 b5 07 2c 40 1e 9f 8b 40 5d e5 b8 40 d7 8d ad 3f
       2.6879704 4.3631735 5.7779984 1.3558911
0000e0 3f 48 ff 3f 83 db 88 3f 56 93 8c 3f 5e 52 07 40
       1.9943923 1.069199 1.0982463 2.1144023
0000f0 06 a7 67 3f 17 af 5e 3f 58 d9 b5 3f 21 c9 88 40
       0.9048923 0.86985916 1.4206953 4.274552
000100 18 66 05 40 8f 8c 7e 3f ff cd 8f 3f 7c 18 10 40
       2.0843563 0.99433225 1.123474 2.2514944
000110 24 f0 41 41 b8 22 11 40 19 0e 57 40 6d 80 80 3f
       12.121128 2.267744 3.3602355 1.0039192
000120 0b 94 7e 3f df d8 07 40 b1 cd 8d 3f f7 c3 5f 3f
       0.99444646 2.1226118 1.1078397 0.87408394
000130 30 53 bb 3f 85 af 92 3f 2f 51 31 40 bc 5c d6 3f
       1.4634762 1.1459814 2.77058 1.674705
000140 3d 88 d5 3f af 2e 02 40 bf 3a 40 40 e8 bf 22 3f
       1.6682202 2.0340993 3.0035856 0.63574076
000150 88 6c bb 3f c1 1d 9f 40 08 3a 01 40 bb 2e bd 40
       1.4642496 4.972382 2.019167 5.9119544
000160 0c 8a 0a 3f d6 81 4e 40 23 fd 38 3f 96 85 30 40
       0.5411689 3.2266746 0.72261256 2.7581534
000170 ec 30 22 40 02 69 c3 3f 01 db 18 40 fb b0 7c 3f
       2.534236 1.5266421 2.388367 0.9870755
000180 07 ab 18 40 e0 f4 63 40 d7 81 9d 40 b7 63 e6 3f
       2.3854387 3.561821 4.9220996 1.799918
000190 ee 65 48 40 87 2f 11 40 04 b4 47 41 f6 4d 14 3f
       3.1312213 2.2685258 12.481449 0.5793146
0001a0 f8 81 d1 3f 6b 17 ad 3f 31 7a 37 3f 40 88 f7 3f
       1.6367788 1.3522772 0.71670824 1.9338455
0001b0 e9 09 09 3f a3 07 39 3f e1 2f 62 3f f1 15 11 40
       0.53530747 0.7227728 0.8835431 2.2669642
0001c0 0c c0 a2 3f 82 87 16 40 f3 db d8 3f 6e 80 f5 3f
       1.2714858 2.3520207 1.6942123 1.9179819
0001d0 4b 20 6d 3f 41 7c 3e 40 be e5 0e 3f 94 d9 b1 40
       0.926274 2.9763339 0.5581931 5.55781
0001e0 9f 9c 14 3f 90 31 5d 40 c6 d0 22 40 58 b0 2c 3f
       0.58051485 3.45615 2.5439925 0.6745658
0001f0 0e 7e 2c 40 42 88 b7 3f 4f 63 6c 3f c8 16 40 40
       2.6951938 1.4338458 0.9233903 3.0013905

net.4.weight f4 [64, 128]
000000 4d ee 35 3b 54 c8 9b bd be cd 98 3d 62 b5 53 3e
       0.0027760447 -0.07606569 0.07461117 0.20674661
000010 69 02 94 be 1d 5f 48 be 9e 85 79 be 85 25 7e 3e
       -0.2890809 -0.19567533 -0.24367377 0.24819
000020 41 db be 3d 8d cc 95 3d 1e 7f 5a be c2 7a 92 3a
       0.09319163 0.073144056 -0.21337554 0.0011175501
000030 56 6a fb be 0e 25 98 be 53 af 79 be 9e 9e 83 3e
       -0.49104565 -0.2971577 -0.24383287 0.25706953
000040 7d d8 13 3e b8 5b 9a be e9 e8 56 3e e7 ff 71 be
       0.14438052 -0.301481 0.20987286 -0.23632775
000050 d6 27 a1 bd 1e 06 99 bd 0a 8c bf 3d f0 24 d7 be
       -0.07868926 -0.0747187 0.09352882 -0.4202037
000060 c3 44 79 be 43 eb 43 bf 84 72 d4 bd b8 08 21 bf
       -0.24342637 -0.76530856 -0.103734046 -0.6290393
000070 a7 35 d2 3d de 95 eb 3c 75 52 d2 be d2 e9 ce bd
       0.102641396 0.028757986 -0.41078535 -0.101031914
000080 f6 a5 30 be 7f d3 f2 be 16 28 b1 be 96 10 68 3e
       -0.17250809 -0.47426984 -0.34600896 0.22662577
000090 0f cf 7a 3d cc ce 13 3e a7 ff 10 be e0 05 56 3c
       0.061232623 0.14434355 -0.14160024 0.013062924
0000a0 f5 33 49 be 78 80 a3 3c a2 d7 a8 3d 73 46 03 3d
       -0.19648726 0.01995872 0.08244254 0.032049607
0000b0 53 33 80 3d 51 53 8b bf 80 22 08 3e a2 05 f5 3e
       0.06259789 -1.0884801 0.1329441 0.4785586
0000c0 bb 44 b2 bc 13 50 0d bc db 83 18 be be 79 45 bd
       -0.021761289 -0.008625048 -0.14894049 -0.048211806
0000d0 27 9c 3d be 92 c6 6a be 78 7e 8c be 4d a4 5c bd
       -0.18516599 -0.22927311 -0.27440238 -0.053867627
0000e0 ce c2 9a be b0 2c ba 3e b6 2c a9 3c b5 a0 ef 3b
       -0.3022675 0.3636222 0.020651203 0.007312859
0000f0 12 57 90 be 46 27 68 3c b2 06 98 bd 28 00 2a bd
       -0.2819143 0.01416952 -0.07423152 -0.041504055
000100 fb a8 4e 3e 97 0e d9 be a3 fe 0a 3d 41 74 cf 3d
       0.20181648 -0.42393944 0.033934247 0.101295955
000110 c4 d7 04 be 3a 12 1f 3c 25 c2 27 3c 98 32 90 3c
       -0.12972933 0.009708935 0.010239159 0.01760225
000120 92 24 49 3e 8f d2 00 3e cd fd 1c 3c 5e 05 bf be
       0.19642857 0.12580322 0.009581995 -0.37308782
000130 b5 33 d0 bb 00 63 c6 3b 0c 3e 2b bf 2b 57 23 bf
       -0.00635382 0.006054282 -0.6689155 -0.6380488
000140 93 9e c8 be 5d 23 4f 3e 2d b6 fb 3d 46 e8 52 3e
       -0.39183483 0.20228334 0.12290607 0.20596418
000150 52 39 3c be ce 33 a2 be dd b6 cf be 96 ac 0c 3e
       -0.18381241 -0.3168015 -0.405692 0.13737711
000160 dd 50 47 3d 25 ca cd be b8 21 2c be 65 c9 9c bd
       0.0486611 -0.40193287 -0.16809738 -0.076556005
000170 73 ff d8 be f3 8d c2 be 4e e4 43 be 0b 7c f5 3e
       -0.42382392 -0.37998924 -0.1913006 0.479462
000180 2a 67 48 3d 96 d9 02 be ac 23 f9 be 59 9a 5d be
       0.04892651 -0.12778315 -0.48660028 -0.2164091
000190 b1 d3 2b 3c bd 25 b0 be 07 0a a4 3d 35 ac a9 3c
       0.010487483 -0.34403792 0.08009725 0.020711998
0001a0 14 06 95 bd ef 7b 7e be 3b 1d b5 3e 78 f1 e4 3d
       -0.0727655 -0.24851964 0.35373864 0.11178869
0001b0 3a 17 1a bd db f9 29 3c 2b c7 2d 3e 19 16 48 3d
       -0.037619807 0.010374512 0.16970508 0.0488492
0001c0 12 93 63 3e 78 05 c7 be 49 85 7e 3d 7e 55 7a bb
       0.22224072 -0.3887136 0.06213883 -0.003819793
0001d0 c1 cf 75 3d 31 bb 92 bd 93 3f 13 3c bd ab 8d bd
       0.060012583 -0.0716461 0.008987325 -0.06917522
0001e0 61 52 84 3e c8 7e e9 bd b2 eb bf be 57 15 b5 3d
       0.258441 -0.11401135 -0.3748451 0.08841961
0001f0 3a 39 c6 bd 03 23 a6 be 8a a1 8e bd f1 48 0b bd
       -0.09678884 -0.32448587 -0.06964405 -0.03400511
000200 ce a6 97 3d a8 6b aa 3c 31 65 72 bf 2e 51 13 3d
       0.07404862 0.020803288 -0.94685656 0.03596609
000210 ad 33 0e bf 4e 14 7a 3d 73 9e bb be 73 71 89 3e
       -0.555476 0.06105452 -0.36644325 0.26844367
000220 d7 bb 2e 3e 26 12 09 3d e5 35 d0 be ba cc 3b be
       0.17063843 0.033464573 -0.40666118 -0.18339816
000230 01 2b 09 be 37 17 75 be 48 ef 4b 3d a1 2f 24 3e
       -0.13395311 -0.23934637 0.049788743 0.16033794
000240 67 ac 15 bd 87 8c f1 3b d0 bf a7 3e 78 fc 90 be
       -0.03654137 0.0073714885 0.3276353 -0.28317618
000250 a7 fc c8 bc b5 f7 65 3e 25 44 a2 3d af 66 c3 be
       -0.024534537 0.22457774 0.07923154 -0.3816428
000260 f2 d0 4d 3e f7 b3 80 bd 9f 89 16 bf e9 b6 ef be
       0.20099238 -0.062843256 -0.58803743 -0.46819237
000270 e0 dc 8d be 00 62 9b 3d 9b 6a 1e 3e 64 a1 6b bd
       -0.27707577 0.075870514 0.15470354 -0.05752696
000280 8c 10 37 3b b9 34 4b be e5 94 57 bc ba 86 ce bc
       0.0027933447 -0.19844331 -0.013158058 -0.025210727
000290 43 12 bc 3d c7 08 48 be 7e fb a2 bd 22 de 38 be
       0.09183171 -0.19534598 -0.079581246 -0.18053487
0002a0 7a bb 29 bf 03 e8 78 3e 7c 13 b3 3d 7f 01 bc bd
       -0.6630169 0.24307255 0.08743951 -0.09179973
0002b0 bf 78 15 3e e1 de 4c 3e 91 98 ea 3d 3a f1 d6 3e
       0.14596842 0.20006897 0.11454881 0.41980916
0002c0 48 26 0b bd ea 04 4a 3c f7 56 35 be 43 2b 50 be
       -0.033972055 0.012330273 -0.17708956 -0.20329003
0002d0 2c 17 03 3e 71 8e 0b 3e fd f6 31 3e a8 a2 70 bf
       0.12801808 0.13628556 0.17379375 -0.93998194
0002e0 b4 3a 45 be 67 86 b4 3e 20 61 e4 3c 76 15 0d 3e
       -0.19260675 0.3525879 0.027878344 0.13777718
0002f0 bc a5 e6 3d 66 ce b9 3d 0b 7b 45 3d 3a af 1b 3d
       0.1126208 0.090725705 0.048213046 0.038008906
000300 c9 1e c3 3d 29 ee f2 be 27 40 db bc 08 a3 26 bf
       0.09527356 -0.47447327 -0.026763989 -0.65092516
000310 05 51 a5 bd b7 d9 38 be f8 33 46 bd 34 0f c0 3c
       -0.08072094 -0.18051802 -0.048389405 0.02344475
000320 e0 67 4f bd c8 fc c9 bd 41 70 bb bd bd fd 83 3d
       -0.050636172 -0.09862667 -0.0915227 0.06444881
000330 cf ff 19 be 5d 29 26 3c 4c af 8f be 06 3d 06 bf
       -0.1503899 0.010141698 -0.28063428 -0.52436864
000340 b8 34 65 be 28 07 d0 bb 95 61 d1 3d 1f c8 92 bd
       -0.22383392 -0.0063485093 0.102236904 -0.07167076
000350 e3 9b 22 be de 9a ba 3c 1d 19 95 be 10 d0 ea 3d
       -0.15879779 0.022778925 -0.29120722 0.11465466
000360 1a 3b 1e 3c d7 5e dc 3d b3 93 2d be 3d 66 e4 be
       0.009657646 0.10760277 -0.16950874 -0.44609252
000370 0c f8 e1 bd 1e e1 d3 be f3 68 5d be 4b e4 ae 3e
       -0.11033639 -0.41382688 -0.21622066 0.3415855
000380 83 3a b1 bd e5 00 6c 3b 9a 53 bf 3d af 1d c8 bd
       -0.08653738 0.0036011275 0.093421176 -0.09771287
000390 e1 c1 25 3e 4d f7 34 3d f2 e5 01 bd dc 6a 4c 3d
       0.1618724 0.044181157 -0.031713434 0.049906597
0003a0 ba 4d 5e be a4 8d f4 be 1e bd 19 3f 9d fa 84 bd
       -0.21709338 -0.47764313 0.60054195 -0.06493113
0003b0 7a 04 c0 3d cc 70 ff 3d ab 63 1e be e4 a5 07 bc
       0.09375854 0.12472686 -0.15467708 -0.0082792975
0003c0 5a a3 0e be e8 fa 5b 3c 48 57 9f bc 75 2e 69 bf
       -0.13929501 0.01342652 -0.019450799 -0.9108651
0003d0 e5 87 6e 3e 7b f2 32 bc 1e b5 a8 be 04 e7 c4 ba
       0.23294027 -0.01092207 -0.3295068 -0.0015022461
0003e0 ad 0e e4 bd b4 6b aa bd f4 29 c6 be ce 1c a6 3d
       -0.11135612 -0.08321324 -0.38703883 0.08110963
0003f0 65 71 40 be 39 b0 d6 3c a7 c2 bb 3d 48 4d f9 3d
       -0.18793257 0.026207076 0.09167986 0.12172943

net.4.bias f4 [64]
000000 47 d5 9d bd 9b 47 a2 3d 29 c2 2c 3d ea e3 a2 bd
       -0.07706695 0.07923814 0.042177353 -0.079536274
000010 6d 4e a0 3d 64 5c e5 3b 67 9d 63 3d 14 4b 5e 3d
       0.078274585 0.006999539 0.055570032 0.05427082
000020 b8 98 0a 3c 77 97 38 3d c1 7d 2f bc 65 61 65 3d
       0.008459263 0.045066323 -0.010711134 0.056001086
000030 88 50 a9 bd 0c 98 9c 3c 52 ba 97 3d c3 57 f2 bc
       -0.08267313 0.01911547 0.07408585 -0.029582864
000040 c5 c0 3a bb 2b a7 aa bd 02 2b 5b bd 83 6e 8e bd
       -0.0028496247 -0.08332666 -0.053507812 -0.06954672
000050 e7 22 b7 bd ac cc 3c 3c 0d fc 03 bd 77 55 76 3d
       -0.08942204 0.011523407 -0.032222796 0.0601401
000060 dd 6a aa bd 21 a4 23 bc 6d b6 77 bd 47 dc 9d 3d
       -0.08321164 -0.009987862 -0.06047671 0.0770803
000070 8a 60 ab 3d 3f 7b c9 bc fa 7d f7 bc 6a dc 51 3c
       0.08368023 -0.024594901 -0.030211437 0.012808898
000080 1e 2f 26 bd 61 99 17 bd bf 64 d1 bc 61 cb b0 3d
       -0.04057228 -0.037011508 -0.025560735 0.086325414
000090 2a 9a 3f 39 19 51 36 3d a8 0d 6c 3c 68 17 aa 3d
       0.0001827261 0.044510935 0.014407553 0.08305246
0000a0 13 d7 81 bc 0c 85 a7 bd e8 12 a8 3d 5c 81 9b bd
       -0.015849626 -0.081796736 0.08206731 -0.07593033
0000b0 3e 76 a8 bd e1 5e 48 bd c2 8a 42 bd b2 77 32 3c
       -0.08225678 -0.04891861 -0.04749561 0.010892795
0000c0 c2 aa 8b 3d d5 2a 01 3c 09 10 e2 3c f9 7e 8a 3d
       0.06819679 0.007883747 0.027595537 0.06762499
0000d0 50 f2 72 bd 9e 15 d0 bb 4f ac 92 3d f0 14 7b 3d
       -0.05931312 -0.006350233 0.071617715 0.061299264
0000e0 66 52 91 bd 49 f9 06 bd 61 e6 01 3d 3d ef 0f bd
       -0.070957944 -0.03295258 0.031713847 -0.035140265
0000f0 79 85 86 bd ca 40 a6 3b 9a c2 86 bd 1a ab 62 3d
       -0.06568427 0.0050736414 -0.06580086 0.055338956

net.5.weight f4 [64]
000000 a3 95 36 3f 87 ae 44 3f f8 55 65 3f 71 ba 2f 3f
       0.7132208 0.7682881 0.895843 0.6864386
000010 29 9d 3d 3f 82 6d 4e 3f 37 c4 3f 3f 02 76 3c 3f
       0.7406793 0.80635846 0.74908775 0.73617566
000020 1c 3c 39 3f ed 83 3e 3f 7c f4 35 3f 4a 45 3b 3f
       0.72357345 0.7442005 0.7107618 0.731526
000030 d3 c0 3e 3f 04 29 37 3f ec 0d 2c 3f b3 79 2a 3f
       0.74512976 0.7154696 0.67208743 0.6659195
000040 3b 97 2e 3f f6 ef 36 3f c1 23 4d 3f 0e df 2e 3f
       0.6819951 0.714599 0.8013268 0.68309104
000050 47 4f 2e 3f 38 e9 2d 3f eb 0c 35 3f 4b bd 3c 3f
       0.6808972 0.6793399 0.70722836 0.7372634
000060 78 a6 44 3f 1a d6 3b 3f b2 9c 25 3f 82 56 3f 3f
       0.7681651 0.7337357 0.64692223 0.74741375
000070 d8 4a 37 3f ed 02 3c 3f 07 a7 32 3f e2 20 35 3f
       0.7159858 0.73441964 0.69786114 0.707533
000080 0d 28 43 3f 50 cf 28 3f 22 8d 39 3f 10 46 35 3f
       0.7623299 0.65941334 0.72480977 0.7081003
000090 cd ec 37 3f 4c 3f 31 3f 8d b1 32 3f b2 ee 4b 3f
       0.71845704 0.6923721 0.6980217 0.79661095
0000a0 bf 34 37 3f 9a cc 21 3f 2b ff 3a 3f b9 bc 6f 3f
       0.7156486 0.6320282 0.73045605 0.9364734
0000b0 e5 62 26 3f f5 47 2f 3f 59 34 65 3f c4 d4 2d 3f
       0.6499465 0.6846917 0.89533 0.6790278
0000c0 27 9a 46 3f 49 10 3a 3f 3e 17 59 3f af ae 3d 3f
       0.7757897 0.726811 0.8480109 0.7409467
0000d0 91 3d 49 3f 34 27 2a 3f b8 94 37 3f 12 b0 34 3f
       0.7860957 0.6646607 0.717113 0.7058116
0000e0 11 40 39 3f ac ef 34 3f 20 c3 5b 3f 38 25 8c 3f
       0.7236338 0.7067821 0.8584461 1.0948858
0000f0 f6 96 37 3f 54 95 3b 3f 62 d8 2e 3f 00 77 37 3f
       0.71714723 0.7327473 0.68298924 0.71665955

net.5.bias f4 [64]
000000 db 37 9d be f6 e4 5b be ec 20 2e be d8 f7 95 bf
       -0.30706677 -0.2147406 -0.17004746 -1.1716261
000010 2d f2 59 be a5 0e 7a be bd 75 d1 be 10 e3 38 bf
       -0.21283789 -0.24419649 -0.4091014 -0.7222147
000020 9a 9f 82 be 94 ed 27 be 1c a8 2e be e6 2b aa be
       -0.2551239 -0.16399223 -0.17056316 -0.33236617
000030 1b 51 dd be 2a ed 03 bf 53 8c 8c 3a 78 e3 e8 bd
       -0.4322594 -0.5153376 0.0010722972 -0.11371511
000040 42 e3 bf be 3e b4 38 be 5a 98 2b bf bd 65 3c be
       -0.3747807 -0.18037507 -0.67029345 -0.18398185
000050 a2 41 a2 be c9 98 a2 bf 65 d2 55 be e8 c7 63 be
       -0.316907 -1.2702876 -0.2088104 -0.22244227
000060 63 ff c6 be bd af 54 bf 72 e0 de bd 21 74 10 be
       -0.3886672 -0.83080655 -0.10882653 -0.141068
000070 42 e5 9d be 7d 77 61 be 77 72 1a bd 4b 68 0f bf
       -0.30838972 -0.22018237 -0.03770682 -0.56018513
000080 01 5d a4 be 66 1a 0c 3d 52 41 49 be c9 fe 64 be
       -0.32102206 0.034204863 -0.19653824 -0.22362818
000090 48 10 11 bf cb 61 9a bf bd 22 e3 be 6b 70 a4 be
       -0.5666547 -1.2061094 -0.4436244 -0.32117018
0000a0 dc e2 44 be a8 78 49 bd d0 62 36 bf f4 00 af be
       -0.19227165 -0.049187332 -0.71244526 -0.34180415
0000b0 30 dd 09 bf 16 ee 81 be 5c 2d a4 be fd 07 96 bd
       -0.5385313 -0.25376958 -0.32065856 -0.073257424
0000c0 6c 4b 1b be 21 0a 69 be 02 00 75 be bb d7 44 bf
       -0.1516549 -0.2275777 -0.23925784 -0.7689168
0000d0 17 0a 33 bf b7 df 10 be 3a 7b 9a be f6 90 a0 be
       -0.6993727 -0.1414784 -0.3017214 -0.31360596
0000e0 78 dd d9 be a5 62 91 be e2 8e b4 be 14 39 42 bf
       -0.4255178 -0.28395572 -0.3526526 -0.75868344
0000f0 5d 8a 94 bd 27 ca a4 bd c4 f0 85 bf dc e3 b0 bf
       -0.07252953 -0.0804637 -1.0464101 -1.3819537

net.5.running_mean f4 [64]
000000 14 01 99 bf 48 bd ae bf 2c 74 9e bf 26 b3 d9 bf
       -1.1953454 -1.3651514 -1.2379203 -1.7007797
000010 c7 50 80 bf 82 35 d6 bf 5c ee ad bf 3d 24 be bf
       -1.0024651 -1.6735079 -1.3588367 -1.4854809
000020 e7 a8 89 bf 0b 05 e8 3d 2b 24 4c bf 6a 88 9a bf
       -1.075467 0.11329087 -0.7974269 -1.207288
000030 99 5b c2 bf 04 44 e6 bf 24 5f 42 bf cb 45 56 bf
       -1.5184203 -1.7989507 -0.75926423 -0.83700246
000040 28 0f 8d bf b8 ab 3a bf fb a0 04 c0 3d d6 c7 be
       -1.102025 -0.7291827 -2.0723255 -0.39030638
000050 ce 41 40 bf c0 68 c2 bf e8 6a a9 bf 90 87 a1 bf
       -0.7510041 -1.5188217 -1.323575 -1.2619495
000060 98 2e d9 bf 49 9a d7 bf dc aa 0a 3f 15 24 e0 be
       -1.6967344 -1.6843959 0.5416696 -0.43777528
000070 20 bb cb bf 4f f9 50 bf 88 db 78 bf 28 07 d3 bf
       -1.5916481 -0.81630415 -0.9720998 -1.6486559
000080 09 90 e2 bf 8b 03 8f bf 52 19 c3 bf 77 b9 f8 bd
       -1.7700206 -1.1172956 -1.5242102 -0.121447496
000090 76 25 d6 bf f1 96 d0 bf a3 d2 3d bf 4d 96 bc bf
       -1.6730182 -1.6296064 -0.7414953 -1.4733368
0000a0 1f 51 3a bf d4 ed 4f bf ef 01 be bf 24 16 d1 bf
       -0.7278003 -0.8122227 -1.484434 -1.6334882
0000b0 be f3 de bf 59 0e dc bf f6 d8 c1 bf 1f bd 44 be
       -1.7418134 -1.7191879 -1.5144336 -0.19212769
0000c0 5f 3a ab be fc 12 16 bf 0e 9f c7 bf 23 c7 db bf
       -0.3344297 -0.5862272 -1.5595415 -1.7170147
0000d0 b1 7d e2 bf 41 af c0 bf f7 8c 99 bf 70 0b 97 bf
       -1.7694608 -1.5053483 -1.1996144 -1.1800365
0000e0 04 95 8e bf 3e 37 c9 bf 9a 70 9f bf 65 e7 b5 bf
       -1.1139226 -1.5719984 -1.2456238 -1.4211241
0000f0 ba d1 6a be a8 95 a2 bf f5 77 d8 bf 94 b1 c2 bf
       -0.22931567 -1.2701921 -1.6911608 -1.5210443

net.5.running_var f4 [64]
000000 0e dd 5a 3f fb 08 26 40 34 08 1b 40 a4 8d fe 3e
       0.8549355 2.5942981 2.4223757 0.49717438
000010 22 bf 08 40 8f c3 0a 40 63 ed ac 3f 65 c1 7d 3f
       2.1366658 2.168186 1.3509945 0.9912322
000020 94 fb 98 3f 55 51 aa 3f 5c 11 be 3f 1f b5 aa 3f
       1.1951776 1.330607 1.4849048 1.3336524
000030 92 7d 94 3f e7 9a db 3f 86 bc 88 3f ec 85 fd 3f
       1.1600821 1.7156647 1.0682533 1.9806495
000040 4b 69 90 3f 81 20 7f 3f 77 bf da 3f f8 5b 83 3f
       1.1282133 0.9965897 1.708968 1.0262442
000050 29 ab d1 3f 57 39 2d 3f d7 2f bc 3f 4d 12 ef 3f
       1.6380359 0.6766562 1.47021 1.867746
000060 6c 7c ed 3f f5 49 b5 3f 71 83 ec 3f c7 db 01 40
       1.8553596 1.4163195 1.8477613 2.0290391
000070 1f fb 13 40 45 77 b9 3f 7a 0a 63 3f 42 1d 7e 3f
       2.3122022 1.4489523 0.8868786 0.99263394
000080 34 43 10 40 27 2d a4 3f 2f 0b df 3f 8e 5c cb 3f
       2.2541018 1.2826279 1.7425288 1.588762
000090 df 00 ab 3f a7 ae 47 3f 2d 58 e2 3f 39 a3 f2 3f
       1.3359641 0.78000873 1.7683159 1.8956062
0000a0 31 9a 09 40 d4 a2 5b 3f d0 8b 7e 3f a8 21 5a 40
       2.150036 0.8579533 0.99432087 3.4083042
0000b0 2b 0d a0 3f 2c 32 e4 3f 97 1a 48 40 5a bf d0 3f
       1.2504019 1.7827811 3.126623 1.6308396
0000c0 16 7f a1 3f 58 af 9a 3f ec 8a 00 40 16 fc 85 3f
       1.2616909 1.2084761 2.008479 1.0467556
0000d0 6a b0 8d 3f 77 ac af 3f 60 82 a2 3f fa 29 a3 3f
       1.1069462 1.3724507 1.2696037 1.2747185
0000e0 01 27 e3 3f 95 5a b1 3f ea c3 a5 3f 32 45 07 40
       1.7746278 1.3855768 1.2950413 2.1135983
0000f0 42 4f a0 3f 9e 33 8e 3f 80 9c 4d 3f aa 6b 09 3f
       1.2524188 1.1109502 0.80316925 0.5367991

net.8.weight f4 [1, 64]
000000 86 76 c3 3d a3 23 b7 3d 0c 22 f0 bd 56 03 8f bf
       0.09544091 0.08942344 -0.11725244 -1.1172893
000010 7a 29 a1 3d 67 6c e0 bd b4 57 c7 bd 52 03 85 be
       0.07869239 -0.10958176 -0.09733525 -0.25979096
000020 cd 47 9e 3d 8f 21 88 3d ab 39 84 3d 4e 01 d2 3d
       0.07728539 0.06647026 0.06456312 0.10254155
000030 43 39 f2 bd 2c 72 06 be 7f f6 98 3d 43 8e 94 3d
       -0.11827328 -0.1312949 0.074688904 0.07253697
000040 24 94 f7 3d 79 f0 8a 3d 3c 06 6d be b1 7c bb 3d
       0.120888025 0.06784148 -0.2314691 0.091546424
000050 b3 c2 a4 bd 39 d1 e6 bf f1 46 9b 3d d2 15 8e bd
       -0.080449484 -1.80326 0.075818904 -0.06937756
000060 9c 52 c9 bd b1 e5 c2 be 32 bc 65 bd 7d 05 82 3d
       -0.098302096 -0.38065866 -0.05608768 0.06348703
000070 05 26 bb 3d cc 60 9b 3d f9 2b 48 3d f3 d1 55 3e
       0.09138111 0.07586822 0.04887006 0.2088087
000080 33 e1 c5 bd 66 9b 9b 3d 4f 25 aa bd c1 a8 6e 3d
       -0.09662094 0.07597999 -0.08307897 0.058266405
000090 cd aa 33 be fe 43 c4 bf 7f a9 ba bd a1 d4 f3 bd
       -0.17545624 -1.533325 -0.0911436 -0.1190579
0000a0 35 04 96 3d 70 98 3f 3d b9 b3 77 be 0f 5d 63 be
       0.07325021 0.046776235 -0.24189653 -0.22203468
0000b0 47 2a 69 3e 59 99 91 3d 45 ab 36 be 12 dc 8e 3d
       0.22770034 0.07109327 -0.17838772 0.06975569
0000c0 5f d1 a5 3d db 6b b1 3d 85 15 bf bd 3d 19 03 bf
       0.08096575 0.0866315 -0.093302764 -0.51210386
0000d0 90 23 f9 be 6b 5d 72 3d b2 ce 72 3d 2c 8b 8b 3d
       -0.48659945 0.05917112 0.05927915 0.06813654
0000e0 fd df e7 bd 85 59 ae 3d d7 82 19 be a1 bd a4 bf
       -0.11322019 0.08513168 -0.14991318 -1.287037
0000f0 b7 8f 9b 3d 43 d6 87 3d a3 95 50 bf 25 70 02 c0
       0.07595771 0.06632664 -0.8147833 -2.0380948
