models/dl/mlp_enhance.pt (torch, 49931 bytes, 13 tensors)

net.0.weight f4 [128, 14]
0	0xbfefcf64	-1.8735166
1	0x3e825160	0.2545271
2	0x3d41c288	0.04730466
3	0x3e71ecba	0.2362546
4	0xbf56ea74	-0.839515
5	0x3e9532fd	0.29140463
6	0xbed40522	-0.41410166
7	0x3de151f7	0.11001962
8	0x3cf01c50	0.029310375
9	0xbef7d2d9	-0.48403051
10	0x3d91658e	0.07099448
11	0xbf664a9b	-0.8995759
12	0xbe2ec811	-0.17068507
13	0xbf8834f2	-1.0641158
14	0xbf48319f	-0.78200716
15	0x3e747e01	0.23876192
16	0xbf82f540	-1.0231094
17	0xbffa2583	-1.9542698
18	0x3dcacb11	0.09902013
19	0x4011ce9e	2.278236
20	0xbeb670e3	-0.35633
21	0xbe10a8c5	-0.1412688
22	0x3dfda5ba	0.123851255
23	0xbc3a9edc	-0.011390414
24	0xbe7e2014	-0.24816924
25	0x3e69a01e	0.22814986
26	0x3e3be029	0.18347229
27	0xbde5bb02	-0.112173095
28	0x3d3aa0c3	0.04556347
29	0x3f4183df	0.75591844
30	0xc00ce114	-2.2012377
31	0x3f056c89	0.52118737
32	0xbeae6c34	-0.34066927
33	0x3d761890	0.06008202
34	0x3e96df28	0.2946713
35	0x3ed289c4	0.41120732
36	0xbe91219c	-0.28345954
37	0xbdc18cf8	-0.09450716
38	0x3d3fb3a6	0.046802185
39	0xbf8121d5	-1.008845
40	0x3d838d8d	0.06423483
41	0xbf1d5caf	-0.6146955
42	0xc0081943	-2.1265419
43	0xbdde614b	-0.10858401
44	0x3e9e53d6	0.30923337
45	0xbf028d21	-0.50996596
46	0x3f22f96e	0.6366185
47	0xbf3428e3	-0.7037489
48	0xbe698710	-0.22805429
49	0xbdced8ab	-0.1009992
50	0x3e7ee7ae	0.24893066
51	0x3e4ef528	0.20210707
52	0xbf60bf07	-0.87791485
53	0xbd3fdbbf	-0.046840426
54	0x3e742548	0.23842347
55	0xbedda905	-0.43293014
56	0xbf726408	-0.94683886
57	0xbfd438d0	-1.6579838
58	0x3e83901e	0.2569589
59	0xbeeed6c8	-0.4664824
60	0xbd2b1d34	-0.041775897
61	0x3e3995b2	0.1812351
62	0xbf73288a	-0.9498373
63	0xbe5e95b0	-0.21736789
64	0x3e7a468e	0.24440977
65	0xbe84b432	-0.25918728
66	0xbd4a96de	-0.049460284
67	0x3e9d0872	0.30670506
68	0xbf2c2ef7	-0.6725916
69	0x3d700673	0.0585999
70	0x3e27bca8	0.1638056
71	0x3ed70e6f	0.420032
72	0x3e90a0b6	0.28247613
73	0xbc81063c	-0.015750043
74	0xc04ce324	-3.2013636
75	0x3da4bedb	0.08044215
76	0x3d3d48c3	0.04621197
77	0x3e97069e	0.29497236
78	0x3e91fec2	0.28514677
79	0x3e8a9532	0.27066952
80	0xbe42abfe	-0.19010922
81	0x3d8d5bc3	0.06902268
82	0xbde10819	-0.10987873
83	0x3e0a54b0	0.13508868
84	0x3d861b61	0.06548191
85	0xbf2780d8	-0.65430975
86	0x3d9fb891	0.07798875
87	0xbd4cd692	-0.050009318
88	0xbdf2fcbc	-0.118646115
89	0xbd6e3495	-0.058155615
90	0xbe43cf68	-0.19122088
91	0x3dd1d2dd	0.10245297
92	0x3dbf6ae4	0.0934656
93	0x4059ef3f	3.4052274
94	0x3d7e4c1d	0.062084306
95	0x3e08d5a2	0.13362744
96	0x3f204254	0.6260121
97	0xbf51c6b0	-0.819438
98	0xbedd8cb1	-0.43271402
99	0xbe8ed1de	-0.2789449
100	0xbe9acfea	-0.3023675
101	0xbf7d8aa3	-0.9903967
102	0xbd8d23b7	-0.06891578
103	0x3f81b8c3	1.013451
104	0xbf7cd2fb	-0.9875943
105	0x3f82d00d	1.0219742
106	0x3f109574	0.5647805
107	0x3d3c2210	0.045930922
108	0xbe9eb9c8	-0.31001115
109	0x3e972f9c	0.2952851
110	0x3cfbb2f0	0.030724972
111	0xbe315623	-0.17318015
112	0x3e6f011b	0.23340265
113	0x3cb4a0ad	0.022049272
114	0xbfcea3c2	-1.6143725
115	0x3f82f080	1.0229645
116	0xbf3af6c3	-0.7303278
117	0xbe6f3c9f	-0.23362969
118	0x3ed2ed60	0.41196728
119	0xbf9312d9	-1.1490127
120	0xbe02e1f0	-0.12781501
121	0xbea090b3	-0.31360397
122	0xbbe1e196	-0.006893347
123	0x3e282e20	0.16423845
124	0xbeef4de4	-0.46739113
125	0xbe20bb04	-0.15696341
126	0xbe9f5119	-0.3111656
127	0x3f0f92f2	0.56083596
128	0x3d70141d	0.05861293
129	0x3f27caa1	0.6554356
130	0xc01c17fc	-2.438964
131	0xbd1f9204	-0.03895761
132	0xbea5ed18	-0.3240745
133	0xbd909568	-0.07059747
134	0x3df312c1	0.118688114
135	0xbebb23eb	-0.3655084
136	0x3e7e3966	0.24826583
137	0x3d3084e6	0.04309549
138	0x3e9d5e27	0.30735895
139	0x3e0ab3e3	0.13545184
140	0xbf70214e	-0.9380082
141	0x3c855a94	0.016278543
142	0x3e5109e2	0.20413926
143	0xbe634fde	-0.22198436
144	0xc05607b7	-3.3442209
145	0x3cea922a	0.02863415
146	0x3e1943ff	0.14967345
147	0x3d1ec69b	0.038763624
148	0x3df3bf29	0.11901695
149	0xbe1080a7	-0.14111577
150	0x3e96b382	0.2943383
151	0x3ed875ab	0.42277274
152	0x3ec88e21	0.39170936
153	0x3d9a43a8	0.07532436
154	0xbdfd7201	-0.1237526
155	0xbc8c9c43	-0.017164355
156	0xbd539842	-0.051658876
157	0x3dc11d6c	0.0942944
158	0xbd8be6d3	-0.068311356
159	0xbd6eca14	-0.058298185
160	0x40fa066b	7.8132834
161	0xbf200095	-0.6250089
162	0xbd7802dd	-0.060549606
163	0x3d24dc54	0.040249184
164	0xbf40bf21	-0.7529164
165	0x3d372f02	0.044722565
166	0x3c9a5777	0.018840535
167	0xbb093e24	-0.002094158
168	0x3f4fa0c9	0.81104714
169	0x3f53f4b3	0.82795256
170	0x3d8b1520	0.06791139
171	0xbe694d3b	-0.22783367
172	0xbf67820f	-0.9043283
173	0x3f9b363c	1.2125926
174	0x3defbedd	0.11706326
175	0x3f2ded88	0.6794057
176	0x3ee2d294	0.44301283
177	0x3d9b294b	0.075762354
178	0x3e9b25a0	0.30302143
179	0x3f41cc63	0.75702494
180	0x3e70fee0	0.23534727
181	0xbc71eeff	-0.014766454
182	0xbe920b67	-0.28524324
183	0xbb8db494	-0.004324505
184	0x3d160f54	0.03663571
185	0x3dc873a7	0.09787684
186	0xbdff0fce	-0.124541864
187	0xbccb3249	-0.024804251
188	0x41099341	8.598451
189	0xbf29ee91	-0.6637965
190	0x3d3060b8	0.04306099
191	0x3e035540	0.12825489
192	0xbd81632f	-0.06317746
193	0x3d3d790c	0.046258017
194	0xbbd95ed6	-0.00663362
195	0xbe1705a8	-0.14748251
196	0xc052b7f6	-3.292478
197	0x3f0418a0	0.51600075
198	0xbccf37cc	-0.02529516
199	0x3e3b403a	0.18286219
200	0x3deb5f04	0.11492732
201	0x3ddfa8ec	0.10920891
202	0xbf2e11a4	-0.6799567
203	0xbea72104	-0.32642376
204	0xbed429a7	-0.41438028
205	0x3e73292f	0.23746179
206	0x3da3c941	0.079973705
207	0xbf827cec	-1.0194373
208	0x3ca759f7	0.02042864
209	0x3e190f8d	0.14947338
210	0xbeed5746	-0.46355647
211	0x3ed9e5c0	0.42558098
212	0x3da6cbee	0.08144365
213	0x3ea81a6d	0.3283266
214	0xbfbb7937	-1.4646367
215	0x3e5d2f58	0.21600091
216	0x3f569a03	0.83828753
217	0xbf312f56	-0.69212854
218	0xbf8f0b4a	-1.117532
219	0xbf418c3f	-0.75604624
220	0xbe47fb4c	-0.19529456
221	0x3e17aaa1	0.14811184
222	0x3cff26bc	0.0311464
223	0xbe07b468	-0.13252413
224	0xbeb7a178	-0.35865378
225	0xbd5ad732	-0.053427882
226	0x3d4c72b4	0.049914077
227	0xbbd48ff8	-0.006486889
228	0xbe382aab	-0.17985027
229	0xbcb4d207	-0.022072805
230	0x3e101e92	0.14074162
231	0x3de6b3ff	0.112648
232	0x3e2c9cc0	0.1685667
233	0x40ab558c	5.3541927
234	0x3b6b5064	0.003590607
235	0xbd43b5de	-0.047780864
236	0xbebaccab	-0.36484274
237	0x3dd2b9b7	0.102893285
238	0xbec60c30	-0.38681173
239	0xbd2f9bae	-0.042873077
240	0xbcfd5e60	-0.03092879
241	0x3d81e6b2	0.0634283
242	0xbdecf655	-0.115704216
243	0xbca286d6	-0.019839685
244	0x41091d26	8.569616
245	0xbf198923	-0.5997488
246	0xbe150299	-0.14551772
247	0xbc7f571b	-0.015584732
248	0xbf1f8fae	-0.6232861
249	0xbca1a916	-0.019733947
250	0xbb9aaf7f	-0.004720628
251	0xbc0b29d2	-0.008493857
252	0x3d981ff5	0.0742797
253	0x3dc09a3b	0.09404417
254	0x3d885029	0.06655914
255	0x3d9cf43c	0.076637715

net.0.bias f4 [128]
0	0xbe697da9	-0.22801842
1	0x3e218ca6	0.1577631
2	0x3e50956a	0.20369497
3	0x3e67bd5f	0.22630833
4	0x3e241694	0.16024238
5	0x3d97767e	0.073956475
6	0xbd2a0293	-0.04150636
7	0x3d8f623f	0.07001161
8	0xbd880cbe	-0.066430554
9	0x3e5a5130	0.21320033
10	0xbdc74043	-0.09729054
11	0x3ccb58c7	0.024822606
12	0x3e870ae3	0.26375493
13	0xbc985e58	-0.018599674
14	0x3e803b53	0.2504526
15	0xbd80fb97	-0.06297987
16	0x3e78c707	0.24294673
17	0xbe6b59b4	-0.22983438
18	0x3daabb2e	0.08336483
19	0x3e1aa27e	0.15101048
20	0x3a84f2d6	0.0010143172
21	0x3e819b12	0.25313622
22	0xbd5e9a70	-0.0543465
23	0x3e7d2b22	0.24723485
24	0xbe3d408a	-0.18481651
25	0x3d87834b	0.06616839
26	0xbe0997ed	-0.13436861
27	0x3e8203db	0.25393566
28	0xbe28ca24	-0.1648336
29	0xbe77ae5b	-0.24187605
30	0xbcae0b8e	-0.021245744
31	0xbcda56c7	-0.026652707
32	0xbd4ccd16	-0.050000273
33	0x3e028384	0.12745482
34	0xbd8f27a2	-0.06989981
35	0xbe03e186	-0.12878999
36	0xbe8265f1	-0.254684
37	0xbe2b0559	-0.16701259
38	0xbc78b6d0	-0.015180305
39	0x3dc5702e	0.09640537
40	0xbd2b1546	-0.041768335
41	0xbc333561	-0.0109380195
42	0xbe7c1806	-0.24618539
43	0x3e5fe664	0.21865231
44	0x3d41836e	0.04724448
45	0x3e104566	0.14088973
46	0xbe5ed389	-0.21760382
47	0xbdd48c85	-0.103783645
48	0x3e827f96	0.25487965
49	0x3e1197a1	0.14217998
50	0x3b553b06	0.0032536401
51	0xbe73ca9e	-0.23807761
52	0xbe850c42	-0.25985914
53	0x3dfba0d6	0.122865364
54	0x3dc327d2	0.095290795
55	0x3cb52228	0.022111014
56	0x3e34900f	0.17633079
57	0x3e24c0c0	0.16089153
58	0xbe362087	-0.17785846
59	0xbd108391	-0.03528172
60	0x3d3fbae6	0.0468091
61	0xbe774392	-0.2414687
62	0x3e16ca4d	0.14725609
63	0x3cbbf06b	0.022941789
64	0xbce7c0b1	-0.028290125
65	0x3e08757b	0.13326065
66	0xbd4eabb0	-0.050456703
67	0x3dfe964c	0.124310106
68	0xbaa765a1	-0.0012771377
69	0x3d6358e0	0.05550468
70	0xbe76a47e	-0.24086186
71	0xbe7c2768	-0.24624407
72	0x3e538360	0.20655584
73	0xbcfe7a23	-0.031064099
74	0xbe70aaa5	-0.23502596
75	0xbdceccfc	-0.100976914
76	0x3dcc6a25	0.09981183
77	0xbd807e2c	-0.062740654
78	0x3d1a41cf	0.037660416
79	0xbd0900f5	-0.03344818
80	0x3e49e70c	0.19717044
81	0x3e5ca95e	0.21548983
82	0x3e6c0931	0.23050381
83	0xbdcb2d22	-0.09920718
84	0xbe77d086	-0.24200639
85	0xbde90d3c	-0.113794774
86	0xbe73786b	-0.23776405
87	0x3e2ec8c3	0.17068772
88	0xbd63d08a	-0.0556188
89	0x3dd97277	0.106175356
90	0x3dc17b4c	0.09447345
91	0x3e359470	0.17732406
92	0x3e5d86ee	0.21633503
93	0x3e6ca1ec	0.23108643
94	0x3e1193fc	0.14216608
95	0x3e0e8f9d	0.13921972
96	0xbde4a781	-0.11164761
97	0xbe3aea9a	-0.18253556
98	0xbdad911e	-0.084749445
99	0xbe6e606a	-0.23278967
100	0xbe136899	-0.1439537
101	0xbd3c62b4	-0.045992568
102	0xbe6f7aae	-0.23386642
103	0xbe3aef1f	-0.1825528
104	0xbe8253cd	-0.2545456
105	0xbd19d2b4	-0.037554458
106	0x3e7302a8	0.23731482
107	0xbe04986e	-0.12948772
108	0xbe6466ec	-0.22304887
109	0xbe50b9f2	-0.20383433
110	0xbe01512c	-0.12628621
111	0x3e3491fe	0.17633817
112	0x3e42c759	0.19021358
113	0xbe1ca45b	-0.15297072
114	0x3e834484	0.2563821
115	0x3e166641	0.14687444
116	0x3e49a444	0.19691569
117	0xbd87f945	-0.06639341
118	0xbe298737	-0.16555487
119	0x3c895857	0.016765757
120	0x3e0d8980	0.13821983
121	0x3ccfc2af	0.025361387
122	0xbe44cd47	-0.19218932
123	0x3cba84a3	0.022768324
124	0xbd255645	-0.040365476
125	0x3e346543	0.17616753
126	0xbdba34f5	-0.09092132
127	0xbe3d48a4	-0.18484741

net.1.weight f4 [128]
0	0x3f55cd31	0.8351622
1	0x3f274908	0.6534581
2	0x3f032b94	0.5123837
3	0x3f3d0f65	0.73851615
4	0x3f8613c0	1.0474777
5	0x3f392f19	0.7233749
6	0x3f99842c	1.1993461
7	0x3f64d3f2	0.893859
8	0x3f2fa14e	0.68605506
9	0x3ed930e6	0.4242012
10	0x3f601b17	0.87541336
11	0x400217f4	2.032712
12	0x3ee2c966	0.4429428
13	0x3ff75e42	1.932564
14	0x3fc8b923	1.5681499
15	0x3f1270bd	0.57203275
16	0x3f9cbd5c	1.2245288
17	0x4007455b	2.1136081
18	0x3f8359b2	1.0261748
19	0x3f8ee6f1	1.1164228
20	0x3ef87517	0.48526832
21	0x3f5e793f	0.86903757
22	0x3f7dfe21	0.99215895
23	0x3f71a4a3	0.9439184
24	0x3f4a3cba	0.7899891
25	0x3fa90aa8	1.3206377
26	0x3f15aab1	0.5846358
27	0x3f8b4331	1.087988
28	0x3f2a11ae	0.6643323
29	0x3f555483	0.8333208
30	0x3f02e781	0.51134497
31	0x3fd9abfb	1.7005609
32	0x3fb97d4b	1.4491361
33	0x3fc0524f	1.5025119
34	0x3f6309b7	0.886867
35	0x3f8bc6a9	1.0920001
36	0x3ec7ccfa	0.39023572
37	0x3f671d2f	0.90278906
38	0x3f935c92	1.1512625
39	0x3f646e71	0.8923102
40	0x3f314e84	0.6926043
41	0x3fb49e1a	1.4110749
42	0x3ec72e53	0.3890253
43	0x3f8d0d51	1.1019689
44	0x3f6b0560	0.91805077
45	0x3f9dbce3	1.2323269
46	0x3f454710	0.7706156
47	0x3f8f76f3	1.1208175
48	0x3fa84f21	1.3149148
49	0x3f815c62	1.0106318
50	0x3fa33dbc	1.2753215
51	0x3f4090ca	0.7522093
52	0x3fb958f1	1.4480268
53	0x3fc588b8	1.5432348
54	0x3f1391a5	0.5764411
55	0x3f393fcf	0.7236299
56	0x3f93264d	1.1496063
57	0x3fda1135	1.7036501
58	0x3fc8b9ef	1.5681742
59	0x3f3ea94a	0.74477065
60	0x3fc53244	1.5405965
61	0x3fc067f3	1.5031723
62	0x3f491930	0.7855406
63	0x3f99961e	1.1998937
64	0x3f975034	1.1821351
65	0x3fbeab99	1.4896117
66	0x3f024504	0.5088656
67	0x3f9eb283	1.2398227
68	0x3e76e52f	0.24110864
69	0x3f984b76	1.1898029
70	0x3f9213da	1.1412308
71	0x3fa7218b	1.3057112
72	0x3f0eaaed	0.5572956
73	0x40042188	2.0645466
74	0x3f1ef5a2	0.62093556
75	0x3fcf68a3	1.6203808
76	0x3f7cf104	0.9880526
77	0x3fb33974	1.4001908
78	0x3fc7ff99	1.5624877
79	0x3feda7c5	1.8566824
80	0x3fcafa62	1.5857661
81	0x3fa8ef09	1.3197948
82	0x3fd557e5	1.6667448
83	0x3fb8786b	1.4411749
84	0x3f88b045	1.0678793
85	0x3f35eade	0.71061504
86	0x3f7d8955	0.9903768
87	0x3fcafd7e	1.585861
88	0x3f2aa362	0.6665555
89	0x3f6d9b66	0.92815244
90	0x3ecd3f65	0.4008743
91	0x3f9fb09e	1.2475774
92	0x3f34561d	0.704439
93	0x3fab47e1	1.3381311
94	0x3f47285c	0.7779596
95	0x3f411798	0.75426626
96	0x3f44f84a	0.7694136
97	0x3e803876	0.25043076
98	0x3fa9de7f	1.3271025
99	0x3fbd9c4d	1.4813324
100	0x3f060ad3	0.52360266
101	0x3f7115c6	0.9417385
102	0x3f76d0e8	0.96412516
103	0x3f707f15	0.9394391
104	0x3f162e82	0.58664715
105	0x3f93e4fe	1.1554258
106	0x40087653	2.132222
107	0x3fd03a28	1.6267748
108	0x3f459d49	0.77193123
109	0x3f011b47	0.50432247
110	0x3f6a0d44	0.9142649
111	0x3f2b8936	0.6700624
112	0x3fa6ecd4	1.3041024
113	0x3e930a01	0.2871857
114	0x3fa5e975	1.296187
115	0x3f8c245c	1.0948596
116	0x3ef34712	0.4751516
117	0x3edd0220	0.43165684
118	0x3ed786fa	0.42095166
119	0x3f0aaed3	0.5417301
120	0x3f46bea1	0.77634627
121	0x3f9938f7	1.1970509
122	0x3fc3dcb0	1.5301723
123	0x3f18fc1b	0.5975968
124	0x3f6c51b2	0.9231216
125	0x3f0152b7	0.5051684
126	0x3e6189d8	0.2202524
127	0x3fae4812	1.3615744

net.1.bias f4 [128]
0	0xbed28a6e	-0.41121238
1	0x3d884939	0.06654591
2	0x3de06f1b	0.10958692
3	0xbdf087b9	-0.11744637
4	0xbfa73a65	-1.3064696
5	0xbeb2d4d7	-0.3492801
6	0xbf8a3d04	-1.079987
7	0xbf67929d	-0.9045809
8	0x3d59fa1b	0.053217035
9	0xbe2706a2	-0.16311124
10	0xbedb7951	-0.42865995
11	0xbf160bb9	-0.5861164
12	0xbf832241	-1.0244828
13	0xbef153b1	-0.47134164
14	0xbe6dd76b	-0.23226707
15	0x3d05a1de	0.03262507
16	0xbf534eac	-0.8254192
17	0xbf1c170f	-0.60972685
18	0xbf3f816a	-0.74806845
19	0xbdeff20e	-0.1171609
20	0x3dbf0a6e	0.09328161
21	0xbe86279a	-0.2620209
22	0xbd9e2d5a	-0.07723494
23	0xbf662783	-0.8990404
24	0xbf3c8ebd	-0.736553
25	0xbe354fda	-0.17706242
26	0xbe724465	-0.23658903
27	0xbf169f36	-0.58836687
28	0x3dab3544	0.08359769
29	0xbf01cf27	-0.50706714
30	0xbe4e616b	-0.2015435
31	0xbebeb0b7	-0.37244198
32	0xbf24a8db	-0.64320153
33	0xbed6fd46	-0.41990107
34	0xbef876d0	-0.48528147
35	0xbe550b64	-0.20805126
36	0xbe27c506	-0.16383752
37	0x3ce1de30	0.027571768
38	0xbef27960	-0.47358227
39	0xbec03e9a	-0.3754776
40	0xbecee2b7	-0.40407345
41	0xbf950cd5	-1.1644541
42	0x3d6e04f0	0.058110178
43	0xbf90faca	-1.1326535
44	0xbd9359c5	-0.071948566
45	0xbe4a9ddc	-0.19786781
46	0xbec93450	-0.39297724
47	0xbd8cc14b	-0.06872805
48	0xbf89f343	-1.0777363
49	0xbf128584	-0.5723498
50	0xbecddf15	-0.4020926
51	0xbdc48a39	-0.095966764
52	0xbf31668b	-0.69297093
53	0xbf0677d7	-0.5252661
54	0xbd09084d	-0.033455182
55	0x3d67fae4	0.056635752
56	0xbf991f41	-1.1962663
57	0xbec4c168	-0.38428807
58	0xbf08b91e	-0.53407466
59	0xbed19367	-0.40932772
60	0xbf299ea7	-0.6625771
61	0xbf462587	-0.7740101
62	0xbf4d0b4f	-0.8009538
63	0xbf784ed5	-0.9699529
64	0xbf371072	-0.7150947
65	0xbed0bb3c	-0.40767848
66	0x3cabfe7a	0.020995367
67	0xbf2512b7	-0.6448168
68	0x3d1a7643	0.03771044
69	0xbf85acf1	-1.0443403
70	0xbf1b1b28	-0.6058831
71	0xbe88dad5	-0.26729456
72	0x3e21d003	0.15802006
73	0xbf1fc14b	-0.62404317
74	0xbde36ebe	-0.11105107
75	0xbefee6ee	-0.4978556
76	0xbe24c34f	-0.1609013
77	0xbf173f3b	-0.5908086
78	0xbeed5b36	-0.4635865
79	0xbf090a1b	-0.53531045
80	0xbee4fabe	-0.4472255
81	0xbf8681ed	-1.05084
82	0xbf2d533f	-0.6770515
83	0xbf7d6a1b	-0.9899003
84	0xbf2e5102	-0.6809236
85	0xbebc7af4	-0.36812556
86	0xbefe3c21	-0.4965525
87	0xbf3e251b	-0.7427537
88	0xbf47ee59	-0.78098065
89	0xbf66758b	-0.90023106
90	0xbd13555b	-0.035970073
91	0xbf4e6e1b	-0.8063676
92	0xbe8ce2ca	-0.27516776
93	0xbd86f1dc	-0.065891
94	0xbd341a8e	-0.043970637
95	0xbe6550c3	-0.2239409
96	0xbac08fda	-0.0014691309
97	0xbc82535d	-0.015908891
98	0xbf90165d	-1.1256825
99	0xbf09aa4b	-0.5377547
100	0x3d897e93	0.06713595
101	0x3be693fa	0.007036683
102	0xbf74153a	-0.9534489
103	0xbf046ec2	-0.51731503
104	0xbf45dcc2	-0.77289975
105	0xbf4d2452	-0.80133545
106	0xbf23399c	-0.6375978
107	0xbf864070	-1.0488415
108	0xbe9cf3e0	-0.30654812
109	0xbebfc0c4	-0.37451756
110	0xbfa29222	-1.2700846
111	0xbea23829	-0.31683472
112	0xbf4a8a3f	-0.79117197
113	0x3e405f4c	0.18786353
114	0xbf06569b	-0.524759
115	0x3d892dbd	0.06698177
116	0xbe872bea	-0.2640069
117	0x3de098f8	0.109666765
118	0xbe0a0f03	-0.13482289
119	0xbac0f65c	-0.0014721858
120	0xbf9662f1	-1.1748945
121	0xbe8a60f1	-0.27027085
122	0x3e878966	0.26472014
123	0xbd0b35dd	-0.033986915
124	0xbf55f6d8	-0.8357978
125	0xbed5dc05	-0.41769424
126	0x3cb68081	0.022278072
127	0xbf80c6ed	-1.0060707

net.1.running_mean f4 [128]
0	0xbe3cbff9	-0.18432607
1	0x3d7c1535	0.061543662
2	0x3e6c6057	0.23083626
3	0x3e78c470	0.24293685
4	0x3e1d2d34	0.15349275
5	0x3e008860	0.12552023
6	0xbde0c79b	-0.10975572
7	0x3a96e6f2	0.0011512919
8	0xbc958f24	-0.018256731
9	0x3e8a7fc8	0.27050614
10	0xbd06fbc1	-0.032954935
11	0x3e0cf357	0.13764702
12	0x3e538890	0.20657563
13	0x3dd45ae0	0.103688955
14	0x3e9635bf	0.2933788
15	0xbb555362	-0.003255092
16	0x3e2cf483	0.16890149
17	0xbdd0984b	-0.101852976
18	0x3e033155	0.12811787
19	0x3dcc897c	0.099871606
20	0x3d3d8576	0.046269856
21	0x3e7745c5	0.24147709
22	0xbdd97186	-0.10617356
23	0x3e9cf370	0.30654478
24	0xbe0382bf	-0.12842844
25	0x3d99e364	0.075140744
26	0xbe112fb1	-0.14178349
27	0x3e9547ec	0.29156435
28	0xbe0732e9	-0.13203014
29	0xbe8c4791	-0.2739835
30	0x3cc39b76	0.02387784
31	0x3c469023	0.012119326
32	0xbd1bd3d5	-0.038043816
33	0x3e49368e	0.19649717
34	0xbca33536	-0.019922834
35	0xbd8fb686	-0.070172355
36	0xbe79de70	-0.2440126
37	0xbe015d39	-0.12633218
38	0xbcc37a5a	-0.023862053
39	0x3d8b6df6	0.06808083
40	0xbd2e6cd5	-0.04258426
41	0x3d6be34d	0.057589818
42	0xbe95da5c	-0.29268157
43	0x3e28500d	0.16436787
44	0x3d8ecd65	0.0697277
45	0x3da1aafd	0.078939416
46	0xbe347951	-0.17624404
47	0xbde51793	-0.11186137
48	0x3e6378ce	0.22214052
49	0x3e00fb07	0.1259576
50	0x3c548b69	0.012972691
51	0xbe84d62b	-0.25944647
52	0xbe5cde54	-0.21569186
53	0x3e01a7f3	0.12661724
54	0x3d2f5469	0.04280511
55	0x3d95e780	0.07319546
56	0x3e0eb2c1	0.13935377
57	0x3e7ced89	0.24699987
58	0xbddb9b26	-0.107229516
59	0x3d4580d2	0.048218556
60	0x3d7d8f6c	0.061904356
61	0xbe260ee5	-0.1621662
62	0x3e413a6e	0.18869945
63	0x3d91355c	0.070902556
64	0xbc7879f1	-0.015165792
65	0x3e4cc2df	0.19996212
66	0x3c4000c3	0.011718932
67	0x3e11c8c7	0.14236747
68	0x3b693a8d	0.0035587878
69	0x3dfed620	0.12443185
70	0xbe53a874	-0.20669729
71	0xbe3cb5b2	-0.18428686
72	0x3e45ddcf	0.19322895
73	0x3ddad40e	0.106849775
74	0xbe264766	-0.16238174
75	0xbcf476a1	-0.029841723
76	0x3d603b37	0.05474397
77	0xbd61193c	-0.054955706
78	0x3de8cf3a	0.1136765
79	0x3d578147	0.052613523
80	0x3e706f07	0.23479854
81	0x3e1a5a5f	0.15073536
82	0x3ebd164f	0.36931083
83	0xbdde5e43	-0.10857823
84	0xbe66f6da	-0.22555104
85	0xbe1d3863	-0.15353541
86	0xbe4aeb34	-0.19816285
87	0x3e43fc53	0.19139223
88	0xbd1e3a19	-0.038629625
89	0x3dc131a8	0.09433299
90	0x3daecd45	0.08535246
91	0x3dc22825	0.09480313
92	0x3e84f1df	0.25965783
93	0x3e8b5370	0.27212095
94	0x3dc3982c	0.09550509
95	0x3e1cdd0d	0.15318699
96	0xbd782ee7	-0.060591605
97	0xbe0a1ee9	-0.13488354
98	0xba81ec60	-0.0009912364
99	0xbe69f788	-0.22848332
100	0xbd9383f7	-0.07202905
101	0xbcd7f880	-0.026363611
102	0xbe8b6e7c	-0.2723273
103	0xbe4a64c8	-0.19765007
104	0xbe72a6d5	-0.23696454
105	0xbddca01f	-0.10772728
106	0x3eba6e0f	0.36412093
107	0xbe1ad5ed	-0.15120669
108	0xbe2e19bb	-0.17002003
109	0xbe6ed487	-0.2332326
110	0xbe19de48	-0.150262
111	0x3df791c0	0.120883465
112	0x3e7547c3	0.23953156
113	0xbe0f33a1	-0.13984539
114	0x3e75335d	0.23945375
115	0x3e2c8ec3	0.16851334
116	0x3e7230ac	0.2365138
117	0xbbd9f331	-0.006651305
118	0xbe42814b	-0.18994634
119	0x3baf8921	0.005356923
120	0x3ddb5f6c	0.1071156
121	0x3bdec103	0.006797911
122	0xbe0135de	-0.12618205
123	0xbcc18d06	-0.023626816
124	0xbc92bbc6	-0.017911803
125	0x3e72a4fd	0.2369575
126	0xbd9dd1a3	-0.07706001
127	0xbe027354	-0.12739307

net.1.running_var f4 [128]
0	0x40c264bf	6.074798
1	0x41a65f06	20.796398
2	0x408f30ad	4.474692
3	0x40c29d87	6.0817294
4	0x4100f98b	8.060924
5	0x414f09a9	12.939858
6	0x411fd834	9.990284
7	0x40bc7e92	5.8904505
8	0x40445c18	3.068121
9	0x40f060d7	7.5118213
10	0x41436dd2	12.214312
11	0x427ce73b	63.22581
12	0x40f3c73c	7.6180706
13	0x42979b2b	75.80306
14	0x4147532a	12.457804
15	0x40716f1e	3.772407
16	0x41f4c0e7	30.59419
17	0x42978b4a	75.77205
18	0x404851a5	3.1299832
19	0x410962ba	8.586603
20	0x40a979ed	5.2961335
21	0x40b2fa87	5.593082
22	0x40ee26c2	7.442231
23	0x41048731	8.283006
24	0x413f480b	11.955089
25	0x41439938	12.224907
26	0x40d94a8c	6.79035
27	0x40263056	2.5967002
28	0x40dc97f0	6.893547
29	0x40399c2e	2.9001575
30	0x4116ca31	9.424363
31	0x418a094d	17.254541
32	0x4125b6d8	10.35714
33	0x41aee602	21.862309
34	0x4147ad32	12.479784
35	0x40aaaab9	5.33334
36	0x40da7569	6.8268323
37	0x40de6c95	6.9507546
38	0x4078f909	3.8902
39	0x409073fd	4.5141587
40	0x410524f7	8.321525
41	0x41006287	8.024055
42	0x40b60748	5.688389
43	0x409734a2	4.725175
44	0x40701f3a	3.751906
45	0x41688589	14.532601
46	0x403a2268	2.90835
47	0x411ffcbb	9.999202
48	0x415280e2	13.156466
49	0x40e675bd	7.2018723
50	0x409e9156	4.955241
51	0x40d134be	6.5376883
52	0x403cf927	2.952707
53	0x4138e692	11.556292
54	0x40e61bfd	7.1909165
55	0x4124b9a9	10.295327
56	0x413f4799	11.95498
57	0x41cc17b5	25.511576
58	0x420be505	34.97365
59	0x4136e40e	11.430677
60	0x40bbb689	5.866032
61	0x4154fcb7	13.311698
62	0x411a5323	9.645297
63	0x405c7f87	3.4452837
64	0x41392eb6	11.573904
65	0x418f053c	17.877556
66	0x41234a77	10.20568
67	0x419a1611	19.260775
68	0x40eb4b85	7.3529687
69	0x40d2349e	6.568923
70	0x40a45696	5.1355696
71	0x40eef606	7.467532
72	0x40b2e062	5.5898905
73	0x42bcb68e	94.35655
74	0x41148418	9.282249
75	0x41885eb0	17.046234
76	0x414aad94	12.667377
77	0x41734c82	15.206179
78	0x41a4c2bd	20.595087
79	0x42090293	34.252514
80	0x4150bf7b	13.046748
81	0x4122cccc	10.174999
82	0x42212533	40.286327
83	0x40e58349	7.172276
84	0x406ffa37	3.749647
85	0x406af10b	3.670962
86	0x405a1e77	3.4081094
87	0x416d83f3	14.844714
88	0x40d40ced	6.626578
89	0x41048951	8.2835245
90	0x408e3110	4.443489
91	0x41bea076	23.82835
92	0x410305dd	8.188931
93	0x40f418b8	7.6280174
94	0x40e96a40	7.29422
95	0x40aaf654	5.3425694
96	0x411ac372	9.672716
97	0x40e71344	7.2211018
98	0x4110cbc6	9.049749
99	0x4071d9c8	3.7789173
100	0x40fa0d54	7.814127
101	0x401e9179	2.477629
102	0x4031235f	2.7677839
103	0x4107cccc	8.487499
104	0x4110664f	9.024978
105	0x40870b2a	4.220113
106	0x429f0532	79.51015
107	0x4157cfee	13.488264
108	0x4110cf0f	9.050551
109	0x40c4d7a0	6.1513214
110	0x403640dc	2.8477087
111	0x410ddaa8	8.865883
112	0x406cc72a	3.699656
113	0x40813ec7	4.0389132
114	0x41785295	15.520162
115	0x410e197e	8.881224
116	0x40461e40	3.0955963
117	0x40e7c1b8	7.2423973
118	0x40b8745f	5.7642055
119	0x40ca9302	6.3304453
120	0x407fa444	3.994401
121	0x4107bf5f	8.484221
122	0x419fee3e	19.99133
123	0x40aec040	5.460968
124	0x408b0841	4.3447576
125	0x40bba1ee	5.863517
126	0x40d2a2ed	6.5823884
127	0x40b120a8	5.5352364

net.4.weight f4 [64, 128]
0	0x3f2eeff2	0.6833488
1	0x3e3b76ff	0.18307112
2	0x3ea567ac	0.32305658
3	0x3e68b164	0.22723919
4	0xbf5face6	-0.873732
5	0xbef5e4bd	-0.48026076
6	0xbdddcc3d	-0.10829971
7	0xbe1c56a9	-0.15267433
8	0x3e698d8d	0.22807904
9	0x3e1465ad	0.14491911
10	0x3d8a3394	0.06748119
11	0xbdf432c1	-0.11923743
12	0x3f6e766d	0.93149453
13	0xbe84f6bb	-0.2596949
14	0x3f8e3070	1.1108532
15	0x3e17bf4b	0.14819066
16	0xbe5fe4eb	-0.21864669
17	0xbdda0606	-0.1064568
18	0xbddc325c	-0.10751793
19	0xbedeebf0	-0.4353938
20	0xbea204e0	-0.31644344
21	0xbedaa304	-0.42702496
22	0xbe256920	-0.16153383
23	0x3e42efbb	0.19036762
24	0xbf41b4bd	-0.7566641
25	0x3f6a91a1	0.9162846
26	0xbdb91978	-0.09038061
27	0xbd9b3f41	-0.07580424
28	0xbe908a7b	-0.28230652
29	0x3ca216cf	0.019786267
30	0x3d84892f	0.06471478
31	0x400acf55	2.1689045
32	0x3e27ec6b	0.1639878
33	0x3ea4aed3	0.3216463
34	0xbec14741	-0.37749675
35	0x3eea7a05	0.4579622
36	0xbdb4b6e6	-0.088239476
37	0x3e2a09a7	0.16605245
38	0xbf1bedee	-0.60909927
39	0xbf41b68d	-0.75669175
40	0xbf25a907	-0.6471104
41	0xbe54ea37	-0.20792471
42	0xbf0441ee	-0.516631
43	0x3d797791	0.060905043
44	0x3db325de	0.08747457
45	0x3f24021a	0.64065707
46	0x3c620098	0.013794087
47	0x3ef3d2ae	0.47621673
48	0xbefa2855	-0.48858896
49	0x3eaeb652	0.34123474
50	0xbea9dc68	-0.3317597
51	0xbe82b0f2	-0.25525624
52	0x3ddd0a1f	0.10792946
53	0x3ff0944b	1.8795255
54	0xbdade712	-0.08491339
55	0xbeca50a0	-0.39514637
56	0xbeeb6a02	-0.45979315
57	0xbe7e0ffe	-0.24810788
58	0x3d9f3794	0.077742726
59	0xbe0e3d2d	-0.13890524
60	0x4019302e	2.3935657
61	0x3e3cec2f	0.18449472
62	0xbf8f2c21	-1.1185342
63	0x3bfb495a	0.0076686563
64	0xbcc4c60f	-0.024020223
65	0xbc97f172	-0.018547747
66	0xbe33dbf7	-0.17564379
67	0xbf116d24	-0.5680716
68	0xbe79fb72	-0.24412325
69	0xbdc2ecf2	-0.0951785
70	0xbf4ca8dc	-0.7994516
71	0x3e938cb1	0.28818277
72	0xbd5df327	-0.054186966
73	0x3d0bce78	0.03413245
74	0xbe8093eb	-0.25112852
75	0x3f0dd081	0.55396277
76	0x3e870b31	0.26375726
77	0x3f943c90	1.1580982
78	0x3ca427a9	0.020038443
79	0x3d7b9b7b	0.061427575
80	0x3fcf344d	1.6187836
81	0x3d771cbf	0.06033015
82	0xbce44764	-0.027866073
83	0xbe96fff8	-0.29492164
84	0x3f20ef40	0.62865067
85	0xbf28eaa4	-0.65983033
86	0xbf2c76de	-0.67368877
87	0x3e9d9c8c	0.30783498
88	0x3f215865	0.63025504
89	0xbf863409	-1.048463
90	0x3f02a809	0.5103765
91	0xbdb2c8b5	-0.08729688
92	0x3ca30382	0.019899134
93	0x3eef432e	0.46730942
94	0xbedfdc5e	-0.43722814
95	0x3f241201	0.6408997
96	0x3ed86f9c	0.4227265
97	0xbc3ba0dd	-0.011451927
98	0xbd263cd3	-0.04058535
99	0x3fa68238	1.300849
100	0xbe579391	-0.21052386
101	0x3ec2d306	0.38051623
102	0x3d7aa29f	0.061190244
103	0xbebf91ed	-0.3741602
104	0x3f047b12	0.5175029
105	0xbd625dd5	-0.055265266
106	0xbe02413e	-0.127202
107	0x3bdcd957	0.006739776
108	0x3e2911e4	0.16510731
109	0x3eccc5d1	0.39994672
110	0xbf643d3e	-0.8915595
111	0xbea42218	-0.3205726
112	0xbdc5f0a7	-0.096650414
113	0xbe16c62a	-0.14724031
114	0x3e4ff1fd	0.20307155
115	0xbe16d1af	-0.14728425
116	0x3f0d0b44	0.55095315
117	0xbe5abc87	-0.2136098
118	0x3e8891b2	0.26673657
119	0xbefa4e90	-0.48888063
120	0xbea01c46	-0.3127157
121	0x3ecc1957	0.39863083
122	0xbe0aa392	-0.1353896
123	0x3c6243a4	0.013810072
124	0x3e7a0fe2	0.24420121
125	0xbe633526	-0.22188243
126	0xbdcdffbe	-0.100585446
127	0x3eb81942	0.3595677
128	0x3d0d1c69	0.034450922
129	0x3d1e53b7	0.038654055
130	0x3e467578	0.19380748
131	0x3f465913	0.77479666
132	0xbfcc32c9	-1.5952998
133	0xbe110e3b	-0.14165585
134	0xbe417220	-0.18891191
135	0xbf56240d	-0.8364876
136	0xbecaf9a4	-0.39643586
137	0xbf139717	-0.5765242
138	0xbfd820c9	-1.6885005
139	0xbe85e306	-0.26149768
140	0x3ee073ba	0.43838292
141	0xbdc894cb	-0.09794005
142	0x3ea9d019	0.33166578
143	0xbe9dc8e4	-0.3081733
144	0xbd3202fd	-0.04345988
145	0xbe1207ee	-0.14260837
146	0x3e381475	0.17976554
147	0xbd0d3427	-0.034473564
148	0xbfaae219	-1.335025
149	0x3e7008cb	0.23440854
150	0x3c1781af	0.009247228
151	0x3f1212c2	0.5705987
152	0xbf47fc73	-0.7811958
153	0x3e65a73f	0.2242708
154	0xbec413c8	-0.38296342
155	0x3e9774d3	0.29581317
156	0xbcd5b0bb	-0.026085248
157	0xbdab9e78	-0.08379835
158	0xbf550e45	-0.832249
159	0x3ebd3344	0.36953175
160	0xbee36755	-0.44414774
161	0x3f27c8ec	0.6554096
162	0xbfdfcd80	-1.7484589
163	0xbf51e463	-0.81989115
164	0xbe9138d8	-0.2836368
165	0xbcd0caca	-0.025487322
166	0x3dca45ee	0.09876619
167	0x3e916c4d	0.2840294
168	0xbf2d130c	-0.6760719
169	0x3d844146	0.064577624
170	0xbf0b1316	-0.54326
171	0xbf861876	-1.0476215
172	0x3e7ac9ac	0.24490994
173	0x3e8612f6	0.2618634
174	0xbf256a33	-0.6461517
175	0x3ef4102f	0.47668597
176	0xbf47636a	-0.7788607
177	0xbf0a9026	-0.54126203
178	0xbdd2a2cf	-0.102849595
179	0x3eb85561	0.3600264
180	0x3f382859	0.71936566
181	0x3e4d3c1b	0.2004246
182	0xbd9492f6	-0.07254593
183	0xbfb4694b	-1.4094633
184	0x3efe34c8	0.49649644
185	0x3ef3d50b	0.47623476
186	0x3d26bb03	0.040705692
187	0xbf28bc89	-0.6591268
188	0x3f96830f	1.1758746
189	0xbe894f8a	-0.26818496
190	0x3f10027d	0.56253797
191	0x3f6b9026	0.9201683
192	0x3e6a1cf0	0.22862601
193	0xbee8cd96	-0.4546935
194	0xbf85c169	-1.0449649
195	0xbf61e92c	-0.8824642
196	0xbe27195b	-0.16318266
197	0x3e339591	0.17537524
198	0x3e4647a5	0.19363268
199	0xbcb0b524	-0.02157075
200	0xbf4bb673	-0.7957527
201	0xbd0d6a0c	-0.034524962
202	0xbf97bf9d	-1.1855351
203	0xbe9b06d0	-0.30278635
204	0xbe2ccc8c	-0.16874903
205	0xbde8c87b	-0.113663636
206	0xbeb88844	-0.36041462
207	0xbdf2efdf	-0.11862158
208	0x3e9b77e0	0.30364895
209	0x3c1a440d	0.009415639
210	0xbf2d508d	-0.67701036
211	0xc00c266b	-2.1898448
212	0x3e6c7652	0.2309201
213	0x3d8f5e19	0.070003696
214	0xbe87ad5a	-0.26499444
215	0xbe909709	-0.2824023
216	0x3e1c5c0f	0.15269493
217	0x3ea7c909	0.32770565
218	0x3f8ffdd6	1.124934
219	0xbd3d5d03	-0.04623128
220	0xbe64c242	-0.22339728
221	0x3a9dfd26	0.0012053594
222	0xbe9fe0b0	-0.3122611
223	0xbe2081f3	-0.15674572
224	0x3e792703	0.24331288
225	0xbe8d1979	-0.27558497
226	0xbd90f791	-0.070784695
227	0x3f846826	1.0344284
228	0xbfa0ea53	-1.257151
229	0x3eb718aa	0.35761005
230	0xbff0f9dd	-1.8826252
231	0xbf06857c	-0.5254743
232	0xbe1e1579	-0.15437879
233	0xbf12a8a0	-0.5728855
234	0xbe652f2d	-0.22381277
235	0xbf25de10	-0.64791965
236	0xbe95245c	-0.29129303
237	0x3e95b17f	0.2923698
238	0xbfd4766d	-1.6598641
239	0xbf086721	-0.5328236
240	0x3e29b2c5	0.16572101
241	0xbc4e8340	-0.012604535
242	0xbe870106	-0.26367968
243	0xbf267560	-0.6502285
244	0x3e7f9c76	0.24962029
245	0xbfb114ab	-1.3834432
246	0xbf258a31	-0.6466399
247	0xbf3906a5	-0.72275764
248	0xbe9daae5	-0.30794445
249	0x3e72a094	0.23694068
250	0xbec79f61	-0.38988784
251	0x3e458c7b	0.1929187
252	0x3d742b04	0.059611335
253	0xbf116e57	-0.5680899
254	0xbf43ff05	-0.76561004
255	0x3f10bc4b	0.5653731

net.4.bias f4 [64]
0	0xbc1650c8	-0.009174533
1	0x3d48a4c9	0.048985276
2	0x3d7023a9	0.05862776
3	0xbd49d797	-0.049277868
4	0x3d73e6e1	0.059546355
5	0xbd1afd40	-0.037839174
6	0x3da5952b	0.08085092
7	0xbda77e85	-0.081784286
8	0x3c254d7e	0.010089276
9	0xbd90d4b3	-0.07071819
10	0x3c01faeb	0.007933359
11	0x3d809539	0.06278462
12	0xbd875d92	-0.06609644
13	0x3d8cf314	0.06882301
14	0xbd67d20c	-0.0565968
15	0xbda76472	-0.08173455
16	0xbcf435bf	-0.029810784
17	0xbc462ece	-0.01209612
18	0x3da2c2a2	0.079472795
19	0xbd5d8831	-0.05408496
20	0xba0892bf	-0.0005209855
21	0x3d497ee6	0.049193285
22	0xbd97940d	-0.07401285
23	0x3c040215	0.008057137
24	0x3cefc45b	0.029268434
25	0x3d19375f	0.03740632
26	0x3c1ee36b	0.009697775
27	0xbd8342b0	-0.06409204
28	0xbd8da34b	-0.06915911
29	0xbb3358bb	-0.002736612
30	0x3d6b9d9c	0.057523355
31	0x3d50321c	0.050829038
32	0x3d98d3aa	0.07462247
33	0x3ba408f2	0.005005949
34	0x3db872f0	0.090062976
35	0x3ca85dfb	0.020552626
36	0x3d8f765c	0.07004997
37	0x3d2879f4	0.04113193
38	0x3dd0697c	0.101763695
39	0xbd98a53c	-0.07453391
40	0xbd8bf052	-0.06832947
41	0xbd505773	-0.050864648
42	0x3c6b8fa3	0.014377507
43	0xbd63aed1	-0.05558664
44	0x3c1fd4cf	0.009755327
45	0xbda251a4	-0.07925728
46	0xbca60d23	-0.020269936
47	0xbc34760a	-0.011014471
48	0x3cf72653	0.030169642
49	0x3dae58e1	0.08513046
50	0xbd29bdba	-0.041440703
51	0xbcaab897	-0.020839972
52	0xbd29fa33	-0.041498374
53	0xbd50db8b	-0.050990622
54	0xbcaf8198	-0.0214241
55	0x3d9768ba	0.07393022
56	0x3d32e767	0.043677714
57	0x3a5a6a08	0.000833184
58	0x3cf6426a	0.030060966
59	0xbd80f17c	-0.062960595
60	0xbcc59b0d	-0.024121786
61	0xbdb15ec8	-0.08660656
62	0xbbcae39e	-0.006191685
63	0x3ccbafb8	0.024864063

net.5.weight f4 [64]
0	0x3ea976e8	0.3309853
1	0x3ea14504	0.31497967
2	0x3ed1ece9	0.4100106
3	0x3f05fc8c	0.5233848
4	0x3e7d9bb3	0.24766426
5	0x3eeafd82	0.45896536
6	0x3f03c55a	0.5147301
7	0x3ebdc702	0.37065893
8	0x3f1daa69	0.6158815
9	0x3f3afacb	0.7303893
10	0x3f53177a	0.824577
11	0x3efbe1ac	0.4919561
12	0x3ed54f5a	0.41662103
13	0x3ecece3c	0.4039172
14	0x3ed7e7c7	0.4216902
15	0x3ec518b4	0.3849541
16	0x3fa39420	1.2779579
17	0x3ebb1e2e	0.36546463
18	0x3edba9ab	0.42902884
19	0x3ee2e5ca	0.4431594
20	0x3ed5cd85	0.4175836
21	0x3f905ccd	1.127832
22	0x3f245fc2	0.64208615
23	0x3e141ff9	0.14465322
24	0x3f152cbd	0.5827139
25	0x3ebe974e	0.3722481
26	0x3f0ce578	0.5503764
27	0x3efaf2d3	0.49013385
28	0x3ec7d7c6	0.3903181
29	0x3e9b0fce	0.30285496
30	0x3f167c99	0.5878387
31	0x3f28af33	0.6589233
32	0x3ebdf7c6	0.371031
33	0x3f0f0388	0.55864763
34	0x3eb92c33	0.36166534
35	0x3e824ab2	0.25447613
36	0x3efb9e3f	0.4914417
37	0x3edd2fd5	0.43200555
38	0x3f425a1e	0.7591876
39	0x3f85e93e	1.0461805
40	0x3e5f7964	0.2182365
41	0x3ed1d9db	0.40986523
42	0x3ee20a04	0.44148266
43	0x3f2d5460	0.6770687
44	0x3eee3de0	0.46531582
45	0x3f232a9a	0.6373688
46	0x3eb75682	0.35808188
47	0x3ec3c59d	0.38236704
48	0x3f201995	0.62539035
49	0x3ec8fd0b	0.39255556
50	0x3edf1988	0.43574166
51	0x3f13f126	0.5778984
52	0x3ef3d72f	0.4762511
53	0x3f103902	0.56336987
54	0x3eea889a	0.45807344
55	0x3ec03934	0.37543643
56	0x3ead92b3	0.33900985
57	0x3ebcbe46	0.36863917
58	0x3f11c3ae	0.5693921
59	0x3ea50b0b	0.32234988
60	0x3f1fd706	0.62437475
61	0x3e998d49	0.29990605
62	0x3ed80a93	0.42195567
63	0x3ec4cbd0	0.38436747

net.5.bias f4 [64]
0	0xbdb15b96	-0.08660047
1	0xbdbd3432	-0.09238471
2	0xbd9350eb	-0.07193168
3	0xbe819081	-0.2530556
4	0xbf2fa65b	-0.68613213
5	0xbe8a644a	-0.2702964
6	0xbeb22bd6	-0.3479907
7	0xbe829737	-0.25505993
8	0xbf6e8cc8	-0.93183565
9	0xbea4265c	-0.32060516
10	0xbfcc2fbc	-1.5952067
11	0xbf2258bd	-0.63416654
12	0x3d1b25b2	0.037877746
13	0x3d4c221d	0.04983722
14	0xbd554d48	-0.052075654
15	0xbd2f460e	-0.04279142
16	0xbf4a7952	-0.7909137
17	0xbf043ff3	-0.5166008
18	0xbe75b539	-0.23994912
19	0xbe4e48d8	-0.20144975
20	0xbdc3a97c	-0.09553811
21	0xbf3ef481	-0.74591833
22	0xbf6bbb28	-0.9208245
23	0xbeee1469	-0.46499947
24	0xbe8e33a4	-0.27773774
25	0x3d8fa040	0.07012987
26	0xbeb60c88	-0.35556436
27	0xbeade6b3	-0.33965072
28	0xbe15153d	-0.14558883
29	0xbc9d3f6e	-0.019195285
30	0xbe1624f7	-0.14662538
31	0xbe9643b4	-0.29348528
32	0x3d20ed12	0.039288588
33	0xbf001bd0	-0.5004244
34	0xbd279e45	-0.040922422
35	0x3d6b2b10	0.057414114
36	0xbf1fe02e	-0.62451446
37	0xbe015fe4	-0.12634236
38	0xbfc16c9d	-1.5111271
39	0xbf51eeb8	-0.8200488
40	0x3b8b9576	0.0042597605
41	0xbe3678dc	-0.17819542
42	0xbe270014	-0.16308624
43	0xbf402027	-0.7504906
44	0xbe0a19e0	-0.13486433
45	0xbf24ad89	-0.64327294
46	0xbdbd9dac	-0.09258589
47	0xbcb11f32	-0.02162132
48	0xbf2a3db3	-0.66500396
49	0xbe48e66f	-0.19619153
50	0xbe6d674a	-0.23183933
51	0xbf0e13f4	-0.55499196
52	0xbe5a2e15	-0.21306641
53	0xbf919371	-1.137312
54	0xbe4ddd77	-0.20104013
55	0x3d848a2a	0.06471665
56	0x3bd81fbd	0.0065955804
57	0xbd928ec7	-0.07156139
58	0xbec7a7c3	-0.3899518
59	0xbeea515c	-0.45765197
60	0xbdfebef4	-0.12438765
61	0xbd839da0	-0.06426549
62	0xbf02b419	-0.5105606
63	0xbda3e15b	-0.080019675

net.5.running_mean f4 [64]
0	0x3fdc96de	1.7233541
1	0xc06e1fcd	-3.720691
2	0xc0b299ca	-5.581273
3	0xc0d49ea4	-6.6443653
4	0x3e85dcff	0.2614517
5	0xc0a085a8	-5.0163155
6	0xbff089bf	-1.8792037
7	0xbf861223	-1.0474285
8	0xc0bc56ef	-5.885612
9	0xc0b83113	-5.7559905
10	0xc0982456	-4.7544355
11	0xc06a7489	-3.6633627
12	0xc08ea927	-4.4581485
13	0xc08d26ba	-4.4109774
14	0xc09ec63a	-4.9616976
15	0xbf078a38	-0.5294528
16	0xc0b7ba2e	-5.741477
17	0x40269a53	2.6031692
18	0xbfe07b65	-1.7537657
19	0x4017f15d	2.3741066
20	0xc0d89b02	-6.768922
21	0xc0bb0cc0	-5.8453064
22	0xc0c09ba8	-6.019001
23	0xc0112078	-2.2676067
24	0xc0b0aa46	-5.5207853
25	0xc0b0122b	-5.502218
26	0xc0bb2f93	-5.8495574
27	0xc09a61d8	-4.824444
28	0xbfb09cf2	-1.3797896
29	0xc08d870e	-4.422736
30	0xc0ad39d3	-5.4133086
31	0xc0ab1110	-5.345833
32	0x400b8dfd	2.1805413
33	0xc0cd7f88	-6.421818
34	0xc07efd9f	-3.9842298
35	0xc05728e7	-3.3618715
36	0xbe8509f6	-0.25984162
37	0xc0b7321f	-5.7248683
38	0xc0ce85bd	-6.4538255
39	0xc0bd965e	-5.9246054
40	0xbf4e7439	-0.8064609
41	0xc0b57372	-5.6703424
42	0xc0946eed	-4.6385407
43	0xc0ccf753	-6.405191
44	0xc0af03a8	-5.4691963
45	0xc0b71ae1	-5.722031
46	0xc0ac2e32	-5.380639
47	0x3f644176	0.89162385
48	0xc0c6909e	-6.2051535
49	0xc0ab4fc5	-5.3534875
50	0xc0d7e5d2	-6.746804
51	0xc0af6215	-5.480723
52	0xc0760f4d	-3.844684
53	0xc0c56399	-6.168408
54	0xc0cad4a6	-6.338458
55	0xc00b0282	-2.172028
56	0xc0adb8f0	-5.4288254
57	0xbf5ae714	-0.8550885
58	0xc0a485e4	-5.141344
59	0x404290f9	3.0400984
60	0xc089e86d	-4.3096223
61	0xc09c0df8	-4.876705
62	0xc0c49981	-6.1437383
63	0x404e819b	3.2266605

net.5.running_var f4 [64]
0	0x4153ac63	13.229587
1	0x415ceb00	13.807373
2	0x41c6b292	24.837193
3	0x419cdf6d	19.609095
4	0x416e432a	14.891397
5	0x41b3bbb4	22.466652
6	0x41144cec	9.26878
7	0x419d6f44	19.679329
8	0x40d12377	6.535579
9	0x4225c775	41.444782
10	0x408c66dc	4.387556
11	0x41158eb6	9.347342
12	0x41f3eb73	30.489965
13	0x41ec7c3f	29.560667
14	0x420128d3	32.289867
15	0x4171fd84	15.124393
16	0x4265006d	57.250416
17	0x417ce5b7	15.806083
18	0x412ed6d8	10.927452
19	0x415c18d2	13.75606
20	0x41f4f881	30.62134
21	0x422b3c0a	42.80863
22	0x410959bc	8.584408
23	0x4183e1b2	16.485203
24	0x413f8f58	11.972496
25	0x41b43004	22.523445
26	0x414c7454	12.7784
27	0x41799c7c	15.600704
28	0x410af0f6	8.683828
29	0x4174f9ca	15.310984
30	0x41476877	12.463004
31	0x41591216	13.5669155
32	0x41ba7c18	23.310593
33	0x415fb833	13.9824705
34	0x416e7b47	14.905097
35	0x418404d2	16.502354
36	0x41039f0c	8.22633
37	0x41b33ef5	22.40574
38	0x412fcf9a	10.988184
39	0x420e586b	35.586346
40	0x41c5bd99	24.717577
41	0x413ffbd4	11.998981
42	0x418c0a38	17.50499
43	0x4100f6ba	8.060236
44	0x418af0b6	17.367535
45	0x410877a9	8.529214
46	0x41adcf27	21.726149
47	0x415138a9	13.076333
48	0x41622e22	14.136263
49	0x418b1ff7	17.390608
50	0x41c939fd	25.153315
51	0x412bd993	10.740619
52	0x4194432e	18.532803
53	0x4102b4fe	8.169188
54	0x4191f869	18.246294
55	0x41f39c4a	30.451313
56	0x41caa1b3	25.328955
57	0x4169ea66	14.619726
58	0x414855ff	12.520995
59	0x4194b681	18.589113
60	0x4228a737	42.163296
61	0x419f97ab	19.949057
62	0x41aaa74f	21.331694
63	0x4185d53a	16.729115

net.8.weight f4 [1, 64]
0	0x3e0000d8	0.12500322
1	0x3de8c75d	0.113661505
2	0xbe0c1877	-0.13681208
3	0xbe19d3c9	-0.15022196
4	0x3d214787	0.039374854
5	0xbe160c54	-0.1465314
6	0x3e0f1bea	0.13975492
7	0xbdcb81c8	-0.09936863
8	0xbf53282f	-0.8248319
9	0xbe3d6f1d	-0.18499418
10	0xc02b13c0	-2.6730804
11	0x3e860048	0.2617209
12	0xbe2d4f22	-0.16924718
13	0xbe2117da	-0.15731755
14	0xbdf6fed2	-0.12060322
15	0x3e158e0a	0.14604965
16	0xbff6f57e	-1.9293668
17	0xbe30ac42	-0.17253211
18	0x3e016a69	0.12638249
19	0x3d57fcb0	0.052731216
20	0xbe246412	-0.16053799
21	0xbfbab5a2	-1.458668
22	0xbf137601	-0.57601935
23	0xbbf97087	-0.0076122913
24	0xbe7115ac	-0.23543423
25	0x3e29faaf	0.16599534
26	0xbe3c9600	-0.18416595
27	0x3e1eb83c	0.15499967
28	0x3def6388	0.11688906
29	0x3de33d02	0.11095621
30	0x3e1b6c6d	0.1517808
31	0xbe34e043	-0.17663674
32	0x3e316a6c	0.17325753
33	0x3e1895f0	0.14900947
34	0x3e036e5a	0.12835065
35	0x3de2c2b8	0.11072296
36	0x3e5e6c26	0.21720943
37	0xbe330b28	-0.17484725
38	0xc06be19c	-3.685645
39	0xbf895f47	-1.0732201
40	0x3dacea7b	0.08443161
41	0x3e16397a	0.14670363
42	0x3e040e97	0.1289619
43	0xbeff0d47	-0.49814817
44	0xbe432ee9	-0.19060864
45	0x3e8bcd86	0.2730524
46	0xbe1c01d1	-0.15235068
47	0x3e0b65d8	0.13613069
48	0xbe8c1eb0	-0.27367163
49	0x3dd6d17f	0.10489177
50	0xbde4f42f	-0.11179387
51	0xbe4a3390	-0.19746232
52	0x3e0e4cc6	0.13896474
53	0xbff5327f	-1.9156035
54	0x3e0499a5	0.12949236
55	0xbe4e7ddd	-0.201652
56	0xbe17e75d	-0.14834352
57	0x3e1e5efe	0.15465924
58	0xbe5e3942	-0.2170153
59	0xbe23dcdd	-0.16002221
60	0xbe256411	-0.16151454
61	0x3dbd5208	0.09244162
62	0xbe1bd824	-0.1521917
63	0x3de7aaad	0.11311851
