models/dl/mlp_enhance.pt (torch, 159499 bytes, 13 tensors)

net.0.weight f4 [256, 14]
000000 ef 0a 07 3e a4 e4 1f bd f6 6a b3 3c 4c d6 ec b9
       0.13187765 -0.039036408 0.021901589 -0.0004517309
000010 cb 22 57 3d 88 8c 4b be 36 7b 29 3d 15 f0 69 3c
       0.052523416 -0.19877827 0.04137727 0.014278431
000020 ac 8f 69 bd fd 91 67 c0 ed 2e 1d be 60 15 f6 3d
       -0.05702178 -3.6182854 -0.15349932 0.12015796
000030 fe d2 bb bd fa fe 44 40 d4 48 b3 bf ba 5b 43 c0
       -0.09171103 3.0780625 -1.40066 -3.0524735
000040 48 fa 50 be 63 5b 92 3e d2 ea 21 3e 54 1d 4d 3e
       -0.20407975 0.28585348 0.15812233 0.20030719
000050 55 76 c9 bf 83 ba 23 bf de ee c5 3e b9 09 bb bd
       -1.5739237 -0.6395647 0.38658804 -0.09132714
000060 39 19 57 3e 17 19 36 3f 74 77 a7 3e 95 c9 62 3e
       0.21005715 0.71132034 0.32708323 0.2214721
000070 21 0b e1 c0 53 88 19 3f b8 d1 cf 3b 7f 73 a9 3e
       -7.0326085 0.5997364 0.006342139 0.3309593
000080 03 b1 fa 3e b3 fb c5 be 87 4a 26 3d 06 91 98 3f
       0.48963174 -0.38668594 0.04059842 1.1919258
000090 d4 ee 50 c0 4f f2 95 3e 7d d6 06 3e 1a a5 d9 bf
       -3.264577 0.2928643 0.13167758 -1.700351
0000a0 16 5c b9 3e e3 8e ad 3d 06 aa 0f bf 44 73 ac 3e
       0.36203068 0.08474519 -0.5611881 0.3368169
0000b0 88 7b 5f bf 0d 18 d8 bf 3d 2e 82 bd 2b 48 1b 40
       -0.8729787 -1.688234 -0.063564755 2.4262798
0000c0 5c 1d 15 bf 2e 3b 23 be 30 79 3c bf 62 94 aa be
       -0.58247924 -0.15940544 -0.7362242 -0.33316332
0000d0 2e 55 36 bf 47 b9 a1 be e8 2f c9 bd d0 94 3f 3e
       -0.71223724 -0.31586668 -0.098235905 0.18709111
0000e0 31 4d 99 be ee 68 2e 3e 80 17 6c be 57 c9 69 bd
       -0.29941705 0.17032215 -0.2305584 -0.05707678
0000f0 25 83 23 bf 19 c3 3a be 8c d9 26 bf 85 22 cd be
       -0.63871986 -0.18238486 -0.651757 -0.400654
000100 72 93 a6 be a3 11 76 3f c1 39 35 be 36 60 0f 3e
       -0.32534367 0.9612066 -0.17697813 0.14001545
000110 0f 4e 71 3e a6 a1 30 3f 6a 46 e3 3e cc 04 13 c0
       0.23564933 0.68996656 0.4438966 -2.2971678
000120 00 8a 3d 3e 07 c0 6d c0 34 55 df 3e fe ae 90 be
       0.18509674 -3.7148454 0.43619692 -0.28258508
000130 a3 e2 33 40 ac 27 47 3e bd 01 09 3f 57 43 ff bd
       2.8107078 0.19448727 0.5351828 -0.12464016
000140 f5 be 3d 3f 95 98 91 bf f1 52 61 3e 72 69 61 3c
       0.741195 -1.1374689 0.22004296 0.01375805
000150 37 b2 b5 c0 45 bb 3b bf 51 8f f9 3e 8d db e0 bf
       -5.6780047 -0.73332626 0.48742154 -1.7567002
000160 9b 96 0f 3e a7 43 72 be 70 2d 0e 3f 10 3f d9 3f
       0.14022295 -0.2365862 0.5553808 1.697237
000170 1b 5e b1 3f fa f7 58 3e 51 bb 3e bd 37 91 22 3f
       1.3856844 0.21188346 -0.046565358 0.6350283
000180 f0 86 ea 3d c1 d2 e2 3d 20 24 1d c0 41 02 0e 3d
       0.114515185 0.11075354 -2.45533 0.03467012
000190 1f 39 bd bf 0b 5e 2c c0 8d 76 34 3d 33 82 56 40
       -1.4783057 -2.69324 0.04405837 3.3516967
0001a0 3a 1f 7c 3e b2 32 06 bf f9 09 9a 3f 38 8f 1c bf
       0.24621287 -0.52421105 1.2034293 -0.61156034
0001b0 87 ba cd 3d 2d fc 13 be db c3 27 bf 50 3c 65 3f
       0.10045343 -0.14451666 -0.65533227 0.89545155
0001c0 f0 6b 99 c0 94 9c 10 3f b9 9a 41 3e 65 d0 14 3e
       -4.794426 0.5648892 0.18906678 0.14532621
0001d0 64 16 e2 3e ee 94 86 be 2a b1 d3 be 02 73 ce 3e
       0.44157708 -0.262855 -0.41346103 0.4032212
0001e0 af c0 48 3d ff 9f 90 3d f3 f7 c8 be 1e 72 10 bf
       0.049011882 0.07061767 -0.3925167 -0.5642413
0001f0 66 47 a4 bd 46 d8 74 c0 4e bd 3d 40 4e cd d9 3d
       -0.08021431 -3.8257003 2.9646792 0.10634862
000200 e3 d5 49 3e e8 38 f9 3d f2 71 d4 bc 10 76 5f 3d
       0.19710498 0.12169057 -0.02593324 0.054555953
000210 0f 42 74 c0 a7 99 8e bf 07 c7 b6 be e4 ba 17 3c
       -3.816532 -1.1140641 -0.3569872 0.009260867
000220 8f 65 92 be 57 26 9a 3d e3 7b 3c bd 6b cd 2a bd
       -0.28593108 0.07526844 -0.046016585 -0.041699808
000230 3f ca 77 bf 90 28 67 be 72 d9 c3 3d 54 f8 92 3e
       -0.9679298 -0.22574067 0.09562959 0.28705084
000240 26 08 93 c0 81 6c f8 bd b2 03 0a 40 56 39 33 c0
       -4.5947447 -0.121300705 2.1564755 -2.8003745
000250 ce 92 7f be 78 17 89 be 14 29 7a bf 5f 0c 82 3f
       -0.24958345 -0.26775718 -0.9771893 1.0160025
000260 ca 25 1c 3f 9b 01 21 3e c3 3a bd bf 95 a2 f7 be
       0.6099516 0.15723269 -1.4783558 -0.48366228
000270 8b ba ce bf 83 70 47 c0 0f e1 4e 3e 30 12 44 40
       -1.6150678 -3.1162422 0.2020304 3.06361
000280 ca 94 35 bf 12 aa bb bf 0e 54 a5 3f f9 a8 ce 3d
       -0.7093016 -1.4661276 1.2916276 0.10090823
000290 de 29 f5 3d 80 69 9e bf 6b e3 f7 be 8f cf c8 3e
       0.11970876 -1.2375946 -0.48415694 0.39220855
0002a0 13 27 4e bf 9e a6 c6 3f 03 84 d6 3e 7e 1a af 3d
       -0.8052837 1.5519598 0.41897592 0.08549975
0002b0 4a c1 1e 40 74 cb 67 bf 3e 6a b7 bf 87 ed 4c bd
       2.4805474 -0.9054482 -1.4329298 -0.05003121
0002c0 26 fd d5 be ad 86 55 3f f9 d9 04 be 24 2c bd bd
       -0.417947 0.83408624 -0.12973775 -0.09236935
0002d0 7c f1 ed 3e 71 18 a6 3f b1 47 d2 c0 b5 d9 60 3f
       0.464733 1.2976209 -6.5712514 0.87832195
0002e0 07 4b 27 be 7d 26 aa 3d a8 4e 37 be c1 af 37 3e
       -0.16337214 0.08308122 -0.17901099 0.17938139
0002f0 e4 da 12 be d9 23 65 3f b9 78 8d 3f c7 80 35 be
       -0.14341313 0.89507824 1.1052467 -0.17724906
000300 60 d0 9f 3d f5 84 f7 bf b1 cc f0 bc d3 2d 6f 3e
       0.07803416 -1.933745 -0.02939448 0.23357324
000310 95 c6 b8 bf 16 c9 09 c0 da 32 35 3f 53 e0 11 c0
       -1.4435602 -2.1528983 0.7078072 -2.2793167
000320 5d 7c f8 3e dc cd 15 be cd bb b2 bf 55 0e 67 c0
       0.48532382 -0.1462931 -1.3963562 -3.6102498
000330 55 6a dc be 74 e4 64 3d 3b cf 92 be ae 18 18 bf
       -0.43049875 0.055881932 -0.2867373 -0.5941266
000340 45 94 44 be b3 69 d8 3e 4e 07 27 be c9 48 f7 bf
       -0.19197185 0.42268142 -0.1631138 -1.9319087
000350 a0 e9 06 bf b7 02 8f 3e 0a 28 20 c0 eb d4 34 be
       -0.52700233 0.2793176 -2.5024438 -0.17659347
000360 8e 80 90 3f a2 3f 9d c0 09 49 89 bc ea bc 00 bf
       1.1289232 -4.9140177 -0.016758459 -0.5028826
000370 2c 46 ea 3d 54 27 4f 3d d8 77 51 be 1d 95 3f be
       0.114391655 0.050574616 -0.20455873 -0.18709226
000380 bd 96 2c c0 89 91 3c c0 02 c4 fe bd 55 c5 3c 3e
       -2.6967003 -2.9463828 -0.12439729 0.18434651
000390 7d 09 93 bf 74 8d 7d be 99 1a 3c 3e 43 f6 76 c0
       -1.148727 -0.24760991 0.18369521 -3.8587806
0003a0 2b 81 c6 3d 5d 28 a4 be cb 86 ab be f9 95 b6 3f
       0.096926056 -0.32062045 -0.33501276 1.4264518
0003b0 4b b5 b1 3d fb 3a 25 be 0c 03 02 c0 ae bd b3 bf
       0.08677157 -0.1613578 -2.031436 -1.4042261
0003c0 84 3b 25 3e 1b da 96 bf e3 06 88 3f 51 67 1f bf
       0.16135985 -1.178531 1.0627102 -0.62267023
0003d0 95 c6 e4 bf 34 03 68 3f 64 94 92 3f b2 69 30 3f
       -1.7873102 0.9062989 1.1451535 0.6891128
0003e0 43 1e b4 bf 4e d5 94 bf f6 a8 b1 3c 26 d6 dd 3e
       -1.4071735 -1.1627595 0.021687012 0.43327445
0003f0 01 52 a3 bf 52 09 73 c0 80 91 4f 3f f1 b6 0e c0
       -1.2759401 -3.7974439 0.8108139 -2.2299159

net.0.bias f4 [256]
000000 9f 5a d1 3d 4f 05 1a 3e 2e c8 32 be 4e 28 14 be
       0.10222363 0.15041088 -0.17459175 -0.144685
000010 7b 00 25 3e 04 ba de 3d 7e ac 34 3e 79 07 2b be
       0.16113465 0.108753234 0.17643926 -0.1670207
000020 88 a9 61 3a 71 91 fc bd eb 34 15 3e ef 5e 0b 3e
       0.0008608331 -0.12332428 0.14570968 0.13610433
000030 0c 91 39 bd 9b 13 72 3e 1f 1f 33 be e3 47 91 3d
       -0.045304343 0.23640291 -0.1749234 0.070937894
000040 20 89 63 bd e9 74 a7 3d 6c 12 58 3e 50 ed 34 be
       -0.055550694 0.08176596 0.21100777 -0.17668653
000050 ef 88 3a 3e 45 5a 8d 3c 11 de c5 bc 71 ee 09 be
       0.18216299 0.017254958 -0.024153741 -0.13469864
000060 82 42 08 be 27 76 c6 bd 98 ca e8 3d 8b 23 94 3d
       -0.1330662 -0.096905045 0.11366767 0.07233342
000070 d2 a7 7f 3e da cb 03 be 14 5a 20 be ef 27 04 b9
       0.24966362 -0.12870732 -0.15659362 -0.00012603377
000080 d1 b4 df bd a5 2c 55 3e 57 8e 44 3e be a1 30 3e
       -0.1092316 0.20817812 0.19194923 0.172492
000090 61 7c 3c bc 3b 34 e3 3d df 04 bb bd 3e 72 50 3d
       -0.011504264 0.110939465 -0.091317885 0.0508902
0000a0 27 ae 07 3d fd 6a 4a 3e 10 9b 73 3e 94 3e 17 bd
       0.03312507 0.19767375 0.2378962 -0.036924914
0000b0 78 b1 5c 3e ed a0 54 3e 0d ff 84 3d d4 11 7f 3d
       0.21552074 0.20764513 0.064939596 0.06227286
0000c0 be 1e 37 be f5 f8 7b be f2 fb 2f 3e 3b 15 42 3e
       -0.17882821 -0.24606688 0.17185953 0.18953411
0000d0 78 8e 40 3c 93 8e c8 bd f9 1d 6c 3d 46 40 83 3e
       0.011752717 -0.09792819 0.05764577 0.25634974
0000e0 e9 9d 85 be 21 2f 9e bd bc 40 80 be a1 9d 31 3d
       -0.26097038 -0.07723833 -0.25049388 0.043363217
0000f0 33 00 89 3e 90 81 1b 3e af 1e 8f bb fd 50 40 3d
       0.26757964 0.15186143 -0.0043676714 0.046952236
000100 4e 46 5d 3e ab 38 85 be 76 ac 27 be 79 19 cd bd
       0.2160885 -0.26019797 -0.16374382 -0.10014624
000110 f2 d0 4d be fd f9 59 3e 50 e7 16 be 97 58 aa bd
       -0.20099238 0.21286769 -0.14736676 -0.083176784
000120 59 4f b7 3d 2b 69 cf bc 47 a1 e8 bd 28 42 16 be
       0.08950681 -0.025318703 -0.11358886 -0.14673674
000130 72 df 82 be 5d f6 4b be c8 21 47 be 93 18 53 3e
       -0.255611 -0.19918199 -0.1944648 0.20614843
000140 39 f2 e8 bd 62 af 48 3e 2d 27 b0 bd da 87 b1 3d
       -0.11374325 0.19598153 -0.08601222 0.0866849
000150 69 79 ff bd 26 ed 9f bb de ef 5e bc 9b 7b 4f be
       -0.12474329 -0.004880565 -0.0136069935 -0.20261995
000160 87 e4 45 3d 62 b0 3f 3d 24 ce 9d bd 29 16 a3 3d
       0.048313644 0.04679907 -0.07705334 0.07963211
000170 e8 ab 64 3e fb a5 08 3e 06 e5 11 3e b5 db a1 3d
       0.22331202 0.13344567 0.14247522 0.07903234
000180 7b 96 79 3e b4 1c 73 bd fd c3 12 3e 2a 69 ea 3d
       0.2437381 -0.059353545 0.14332576 0.1144584
000190 fa 78 08 3e 40 92 70 3e a7 95 2a 3e 1c 0d fd 3d
       0.13327399 0.2349329 0.1665865 0.12356016
0001a0 44 6e 80 3d a0 df 23 3e ca bf cb 3d 1d b6 17 3c
       0.062710315 0.16003275 0.0994869 0.009259728
0001b0 21 23 95 bd 10 60 7a 3e 0d 4c 6c be 52 93 31 3e
       -0.07282091 0.24450707 -0.23075886 0.17341354
0001c0 84 ce 61 3e 16 99 82 3d 12 42 6a 3e 21 a1 e9 3a
       0.22051436 0.06376855 0.22876766 0.0017824509
0001d0 e2 04 51 3e 00 dd a8 3d 3c ff 0e 3e 14 9a 63 be
       0.20412019 0.082452774 0.13964552 -0.22226745
0001e0 ca 8d ac bd b9 4d 02 bd 22 6b c1 bd fc ae 2b 3e
       -0.084254816 -0.031812403 -0.09444262 0.1676597
0001f0 e5 4b 7f 3e ff 96 86 3e 52 81 12 3d b4 ea 31 3e
       0.24931295 0.26287076 0.03576786 0.17374688
000200 62 5a 62 3e 52 6d 7b be b5 ba fd 3d 9b 52 21 be
       0.22104791 -0.24553421 0.12389127 -0.15754168
000210 25 7d 82 3e c7 20 0b 3e 8f 93 e2 bd 26 0a 23 bd
       0.25486103 0.13586722 -0.11063301 -0.0398046
000220 4b d2 13 be bb 8b 85 3e 75 2c 1e 3e e8 5f 02 bd
       -0.14435689 0.26083168 0.15446647 -0.031829745
000230 fb f6 40 bd b3 70 33 be 51 d6 16 bd 67 d6 02 be
       -0.04711054 -0.1752346 -0.03682548 -0.127771
000240 2a 3a 2a be f2 97 4d 3e 93 9f 24 3e 80 b5 b5 3d
       -0.1662375 0.20077494 0.16076498 0.08872509
000250 5c 83 7b 3e fe 7b b4 bd ee 8b 82 bd 16 b3 52 3d
       0.24561828 -0.08812712 -0.06374346 0.05144032
000260 17 3f 50 be 41 ef 4f be 9e 27 b1 bc d0 06 3f 3b
       -0.20336567 -0.20306112 -0.021625336 0.0029148348
000270 89 f3 97 bd 81 f8 30 3c 47 85 69 3e 6e da 14 be
       -0.074194975 0.010801435 0.22804748 -0.1453645
000280 e5 1f 6a bd 04 06 f6 3c 76 70 66 3d 90 01 35 be
       -0.057159323 0.030032165 0.056259595 -0.17676377
000290 07 13 41 3e 7b c1 63 3e 69 01 2d be 9a 10 50 be
       0.18854915 0.22241776 -0.16895069 -0.20318833
0002a0 93 c8 76 3c 36 60 ee 3d 5f 4e e9 bd 8b 69 2d be
       0.015062469 0.116394445 -0.11391901 -0.16934793
0002b0 24 00 ea 3d b9 c4 cb bd d4 8b 04 be 0c 1f 80 be
       0.11425808 -0.09949631 -0.12943965 -0.25023687
0002c0 32 5e 81 be 05 50 2a bd 5b b2 55 3d bc ba 14 be
       -0.25267178 -0.04158022 0.052172046 -0.14524359
0002d0 ac f6 68 be 0f 3a 02 3e 53 2c 5c be 93 a4 4d be
       -0.22750348 0.1271746 -0.21501283 -0.20082311
0002e0 d9 5f 59 3b 68 7c 22 3e ea cf 56 be 2b 8e 83 3e
       0.0033168702 0.1586777 -0.2097775 0.25694403
0002f0 60 13 c3 3a 10 86 50 ba 00 12 84 3e 58 b2 3a be
       0.0014883094 -0.0007954547 0.25794983 -0.18232095
000300 c3 4a 47 3e fe 99 12 3e 09 42 0d be 2f 78 3b be
       0.19462113 0.14316556 -0.13794722 -0.18307565
000310 b5 c5 4e 3e 7d 29 38 bd 77 ba 52 3e bc f6 0b 3e
       0.20192607 -0.04496144 0.20578943 0.1366834
000320 7b d9 e5 bd 04 be 0b 3c 2d 5d 32 3e 4f 9b f5 3d
       -0.11223122 0.00852919 0.17418356 0.119925134
000330 e3 0d 84 be 88 9c fb 3d c8 28 4e 3e 5a 80 20 3e
       -0.25791845 0.12285715 0.20132744 0.15673962
000340 f7 d9 04 bd 97 b0 04 3c ca 01 c3 3b 90 2f 28 3d
       -0.03243443 0.008098743 0.005951141 0.041060984
000350 d1 3c 9b 3d e6 1d 55 3e 5c af 5f be 0d d1 91 bd
       0.07579959 0.20812187 -0.21844238 -0.071199514
000360 24 9d d1 3c 64 2b 67 3c ce b9 58 3e 1c 39 50 3e
       0.025587626 0.014109466 0.21164629 0.20334285
000370 44 a4 ba 3a 70 e5 0f 3d d4 34 61 3e 66 c8 80 bd
       0.0014239629 0.035130918 0.21992809 -0.06288223
000380 6d 5f 64 be c3 e4 79 be c4 66 67 3e 5c a8 79 3e
       -0.22302027 -0.24403672 0.22597796 0.2438063
000390 93 dc 9a bd f3 11 1f be f1 82 9c 3d cb e0 f7 3d
       -0.075616024 -0.15534191 0.076421626 0.12103423
0003a0 05 dd 9a bd e0 32 ad 3d 8c b5 d0 3d 04 ea d3 3b
       -0.075616874 0.08456969 0.10190877 0.006467106
0003b0 81 5f 0d 3d 0b b8 59 be 03 7d 43 3e bc 3d 1a 3e
       0.034514908 -0.21261613 0.19090657 0.15062612
0003c0 84 5c dc bc ab 7a 1b 3e 10 61 80 3e 5d f0 69 be
       -0.026899584 0.15183513 0.25074053 -0.22845598
0003d0 b3 b4 4a 3d d9 03 d7 3b 60 a8 75 3e 36 9b 71 3e
       0.049488734 0.006561738 0.23990011 0.23594365
0003e0 70 cb cf 3d 6d 87 a4 3d 00 25 ee 3c f4 fc 05 bc
       0.101462245 0.08033643 0.029070377 -0.0081779845
0003f0 70 1a 27 3e 35 47 b1 bd 76 b3 01 3e a4 cc 3a 3c
       0.16318679 -0.0865616 0.12666115 0.011401329

net.1.weight f4 [256]
000000 f7 6a 0d 40 b3 80 f0 3f a2 b7 f5 3f f5 8e c5 3d
       2.2096536 1.8789276 1.9196665 0.096464075
000010 42 cb 85 3e 58 50 a9 3f 0c 86 0f 40 a2 37 df 3f
       0.26131636 1.3227644 2.2425566 1.7438853
000020 8e e5 df 3f c3 5e 82 3f 0b ab 8d 3f 4f 40 f0 3f
       1.749193 1.0185169 1.1067823 1.8769625
000030 ac 9e 6e 3f e7 88 fb 3f 9e 43 fd 3f db c5 b0 3e
       0.93210864 1.9651154 1.978626 0.34525952
000040 8d f9 9e 3f 87 e0 5e 3f 77 34 de 3f 7a 01 17 40
       1.2419907 0.8706135 1.7359761 2.3594651
000050 d5 30 15 3f ad 85 99 3d db 55 9f 3f 70 de d5 3f
       0.58277637 0.074962 1.2448076 1.6708508
000060 2d 8c 1c 3f 86 82 58 3e 2b 25 97 3f 34 fe b6 3e
       0.6115139 0.2114354 1.1808218 0.35740817
000070 a1 79 18 3d 95 7c 1c 3f 8f b7 10 3f 75 d5 e7 3f
       0.03722537 0.611276 0.5653009 1.8112017
000080 b3 a6 22 3f ee 2e c7 3f 67 bd 21 40 b4 e4 c2 3f
       0.6353561 1.5561197 2.5271852 1.5226045
000090 0a 4b c7 3f e3 27 8b 3f 9c c2 ae 3f 1d 12 46 3d
       1.5569775 1.0871547 1.365314 0.048357118
0000a0 00 31 47 40 1b a8 27 40 36 24 05 3f 1d f7 19 3f
       3.1123657 2.6196353 0.5200838 0.6014269
0000b0 19 31 01 40 fa 04 34 3f 16 a3 77 3f 1b a6 ce 3f
       2.0186217 0.70320094 0.96733224 1.6144441
0000c0 e7 84 30 40 4a 57 c2 3d a0 fd 95 3f bc f3 1b 3f
       2.7581117 0.09489305 1.1718025 0.60918784
0000d0 4f 58 fb 3f bd f5 4f 3f bf 42 5a 3f 77 d9 78 3f
       1.9636325 0.8123434 0.85258096 0.97206825
0000e0 a4 c5 3b 3f 02 e5 ed 3f 75 2f 53 40 2d 48 7b 3f
       0.7334845 1.8585513 3.2997715 0.98157007
0000f0 7b 39 0f 40 0a d8 02 40 9b 35 17 3f b3 65 62 3f
       2.2378833 2.044436 0.5906617 0.8843643
000100 6c 83 d1 3e c0 9a 83 3f 0b 9e 64 3f b0 f3 65 3f
       0.4092058 1.0281601 0.89303654 0.8982496
000110 45 bf bb 3f de de c3 3f 6b 04 b5 3f 81 54 38 3f
       1.4667746 1.5302389 1.4141973 0.7200394
000120 1c 1d b0 3f c1 c8 ea 3f 44 e2 c7 3f 1c f2 97 3f
       1.3758883 1.8342515 1.5615926 1.1870761
000130 7d 7b 81 3f 6a 11 15 3f e9 1e a5 3f 41 83 eb 3f
       1.0115811 0.58229697 1.2900058 1.839943
000140 b4 69 67 3f b3 82 8d 3f fa a8 8c 3f 06 7f 19 40
       0.90395665 1.1055511 1.0989068 2.398378
000150 1a 9b f4 3f 84 27 74 3f 3f 64 b1 3f 4a d3 05 3f
       1.9109833 0.95372796 1.3858718 0.52275527
000160 6a 53 8c 3f ba a9 f1 3c bc cc ec 3f 95 b3 25 40
       1.0962956 0.029499877 1.849998 2.5890858
000170 a0 a9 49 40 e7 30 12 40 3b 96 f9 3e 6a 51 e8 3f
       3.150978 2.2842348 0.4874743 1.8149846
000180 b6 40 e9 3f bc 4d 03 40 9e 95 f5 3f dd 58 9e 3f
       1.8222873 2.0516195 1.9186285 1.2370869
000190 af d0 be 3f ae ad 72 3f 03 a0 b2 3f 8a 08 f4 3f
       1.4907435 0.94796264 1.3955082 1.9065106
0001a0 fd c7 92 3d cd 04 ee 3f bb c7 5b 40 99 4a 3d 3f
       0.07167051 1.8595215 3.4340656 0.7394195
0001b0 61 47 b6 3f 8c 2a 6a 3f 92 fd 80 3f 98 31 d8 3f
       1.4240533 0.9147117 1.0077384 1.6890135
0001c0 ea d5 44 40 07 a0 e2 3f e7 3e 9b 3f 62 06 c6 3f
       3.0755563 1.7705086 1.2128571 1.5470698
0001d0 52 e0 e0 3f 99 48 60 3f 44 25 71 3f 20 8a 1f 40
       1.7568457 0.87610775 0.9419749 2.4928055
0001e0 af 58 9e 3f 67 0f 2b 3f 7a a0 05 40 b1 4e a6 3c
       1.2370814 0.6682038 2.0879197 0.020301195
0001f0 75 10 d9 3f 08 97 f5 3f 3a c6 b2 3f 0a ac 45 40
       1.6958147 1.9186716 1.3966744 3.0886254
000200 fd 98 dd 3f 8e 67 cd 3f 9d a7 73 3f 61 50 80 3c
       1.7312313 1.6047227 0.9517763 0.015663328
000210 80 f9 eb 3f bc 2f 48 3f 4e 61 fe 3f c2 af 33 40
       1.8435516 0.78197837 1.9873445 2.8076024
000220 6d 1e db 3f f1 19 db 3f 46 b7 18 3f 28 e3 21 3f
       1.711866 1.7117292 0.59654653 0.6323724
000230 f2 27 57 3e 60 b2 f3 3f 04 bc 0d 40 d0 11 b6 3f
       0.21011332 1.9038811 2.2146006 1.4224186
000240 67 7d 31 40 6a 08 3c 3f 76 7d 2b 3f 0d 39 ac 3f
       2.773279 0.7345034 0.66988313 1.345491
000250 56 87 df 3f 96 d4 a1 3f 4c c3 fb 3e 1c e2 97 3f
       1.7463176 1.2643001 0.49172437 1.1865878
000260 19 4f 3e 3f 48 df e4 3f 8b d9 47 3f 62 11 f3 3b
       0.74339443 1.788064 0.7806632 0.0074178437
000270 0b 1b d1 3f 43 7d 14 3e 92 28 fe 3e 2e fe 1e 40
       1.6336378 0.14500909 0.49640328 2.484264
000280 13 3a 24 40 a7 5b 3b 3f d0 8c 02 40 89 12 ff 3f
       2.5660446 0.73186725 2.0398445 1.9927531
000290 3a 1b 04 40 ab 45 de 3f 3c 07 9b 3f 22 62 cb 3b
       2.0641618 1.7365011 1.2111583 0.0062067667
0002a0 e0 33 d8 3f 29 df b2 3f 74 1f ce 3f 05 90 1e 3f
       1.6890831 1.3974353 1.6103349 0.61938506
0002b0 37 0e da 3e ef 19 16 40 28 8c 9b 3f e1 fc 23 40
       0.4258897 2.3453329 1.2152147 2.5623095
0002c0 36 7c 2d 3f 78 b1 56 3f 4a 87 42 40 70 66 05 40
       0.67767656 0.83864546 3.0395074 2.0843773
0002d0 3d 6b b6 3f 13 0c 0c 40 2f 96 61 3f 81 ad 15 40
       1.4251477 2.188237 0.88119787 2.3387148
0002e0 23 58 b8 3e 71 a9 95 3f d3 b5 b0 3f 6e f4 3a 3f
       0.36004743 1.1692334 1.3805488 0.7302922
0002f0 8d 11 0b 3f 1a 43 83 3f 93 60 8d 3f 64 af 2a 3f
       0.54323655 1.0254853 1.1045097 0.66673875
000300 de ec 3b 3f 98 0a ac 3f 94 4e 54 3d 31 1b 4a 3f
       0.73408306 1.3440733 0.05183275 0.7894774
000310 d3 de c4 3f 95 9d cf 3f 0b 75 cc 3f 49 a0 b6 3e
       1.53805 1.6219965 1.5973219 0.35669163
000320 14 79 37 40 ac 4d 48 3c 31 bc 42 3f 48 f8 04 40
       2.866765 0.01222555 0.7606841 2.077654
000330 1b 66 43 3f 02 b8 ed 3f cf 4a 2d 40 dd 40 09 40
       0.76327676 1.857178 2.707691 2.144584
000340 ce 6d 88 3f 89 51 d0 3f e7 80 cb 3f 8a 69 b0 3f
       1.065851 1.6274883 1.5898713 1.3782208
000350 96 64 f3 3f f9 94 60 bc 3a 7b f9 3f 3d e9 c3 3c
       1.9015071 -0.013707393 1.9490731 0.023914928
000360 02 f4 0a 40 a4 ec c5 3f 75 a2 88 3e 2e 97 c0 bb
       2.171143 1.5462842 0.26686445 -0.005877397
000370 39 f5 56 3f 10 30 41 40 58 cb 6d 3d 72 fa c4 3f
       0.8396793 3.0185585 0.05805525 1.538893
000380 7b 84 0c 40 46 d8 80 3f fe e4 b6 3f 79 5f d6 3f
       2.195586 1.0066001 1.4288633 1.6747886
000390 0e 11 cc 3f d3 eb 13 40 18 6f 36 3f de 32 8c 3f
       1.5942705 2.3112686 0.71263266 1.0953023
0003a0 11 cd cb 3c 47 90 28 40 be 80 51 40 12 50 f8 3f
       0.024878057 2.633806 3.2734828 1.9399436
0003b0 0e a2 b9 3f 57 f8 56 3f 40 b6 ea 3f df 8d 9b 3f
       1.450258 0.83972687 1.8336868 1.2152671
0003c0 eb e4 f9 3f 1b 56 2f 3f b0 f2 21 3f 9d 4e 0b 40
       1.9522985 0.6849076 0.63260937 2.1766732
0003d0 58 80 85 3e 89 df 4a 3f 6d de e1 3f ae 94 69 3f
       0.2607448 0.7924734 1.7646004 0.9124249
0003e0 51 8b 60 3f 91 ac 20 3f a5 0c fb 3f 29 3d 06 40
       0.8771258 0.62763315 1.9613234 2.097483
0003f0 19 9d 55 3f 7f 50 1f 3f ff ac e5 3f 74 0a 83 3f
       0.83442837 0.622322 1.7943419 1.0237565

net.1.bias f4 [256]
000000 f9 59 8f bf 43 55 46 c0 60 49 27 be 63 1b 1f bf
       -1.1199332 -3.098954 -0.16336584 -0.62151164
000010 5e 6a 60 bf a3 39 b7 be f1 66 4e bf d3 7d b2 be
       -0.87662303 -0.3578616 -0.80625826 -0.3486162
000020 86 66 12 bf e2 9f 28 be 05 f4 eb be af 92 c0 be
       -0.5718769 -0.1646724 -0.4608461 -0.3761191
000030 86 30 91 bf d7 f8 41 bd 0f b7 c3 be 6c ac f2 3d
       -1.1342933 -0.047356453 -0.382256 0.11849293
000040 81 1b 88 be da 2e 2a bd 67 56 f4 be f8 ed 95 bf
       -0.26583484 -0.041548587 -0.4772217 -1.1713247
000050 2b b9 88 3d 73 35 9f be b8 be 37 bf e7 7e cb be
       0.06675943 -0.31095466 -0.7177539 -0.39745256
000060 67 da 9c 3d 9e c6 e1 bf a5 05 8a 3d ba 61 e0 be
       0.076588444 -1.7638738 0.06739358 -0.4382456
000070 6e c8 10 bf c1 16 aa bd 36 a4 ec be 66 f8 3e 3e
       -0.5655583 -0.08305121 -0.46219033 0.18649444
000080 5a de cd bd d8 87 0f bf 7b ca 1b bf 2f 66 c1 bf
       -0.10052176 -0.56066656 -0.60855836 -1.5109309
000090 b3 98 46 3e 13 0f 3c bf 78 a5 15 bf 13 22 3d bf
       0.19394188 -0.734605 -0.5845561 -0.7388012
0000a0 58 80 75 bf c6 67 47 bf 52 70 6c 3e be 3b d9 bd
       -0.9589896 -0.7789272 0.23089722 -0.10607098
0000b0 ab 31 8d bf 7f 24 ad be 63 80 46 bf dc 0c ce bf
       -1.1030782 -0.33816907 -0.7753965 -1.6097674
0000c0 50 7c 19 bf b7 8e 24 bf fa 3b 4b be 5c 84 87 bb
       -0.5995531 -0.64280266 -0.19847098 -0.0041356515
0000d0 cb 21 b5 bf e3 93 04 bd d7 b3 b0 be 9c 62 86 be
       -1.4150938 -0.0323676 -0.34512207 -0.26247108
0000e0 53 6f 25 bf 3e 8e c5 be 49 fd 72 bf 33 b8 5a bf
       -0.6462299 -0.38585085 -0.9491773 -0.85437316
0000f0 19 35 65 bf 5c 50 c5 bf 0f 8a 8d be 73 b1 4a bf
       -0.89534146 -1.5415149 -0.27644393 -0.79177016
000100 b6 df d7 be 55 9e 86 bf 7b 3e 4a 3e 93 c4 01 3c
       -0.42162865 -1.0517069 0.19750397 0.007920402
000110 d1 97 2d bf 07 5e 9b bf 2e 18 a6 bf 99 fd 07 bf
       -0.6780978 -1.213807 -1.2976129 -0.53121334
000120 9d b3 13 bf 99 e1 75 bf b4 e2 1a bf cc 2a 7e be
       -0.57695943 -0.9604736 -0.6050217 -0.24821013
000130 18 71 43 bf 77 64 50 bf e6 9e 9d bf c7 de b8 be
       -0.7634444 -0.814033 -1.2314117 -0.36107466
000140 02 e8 aa bd 51 5d a4 bf ee 56 28 be 80 fa 09 bf
       -0.08345033 -1.2840978 -0.16439411 -0.5389786
000150 c6 82 6e bf 96 66 5d bf 8e f2 86 bf 07 b2 87 bf
       -0.93168294 -0.8648466 -1.0542772 -1.0601205
000160 c6 9a 05 bd eb 0c f2 be 63 c7 e2 be 1d 7b 2e bf
       -0.032618307 -0.4727548 -0.44292745 -0.68156606
000170 ec b4 56 bf c5 3f 82 bf 0d a3 2f be 66 da 6c be
       -0.83869815 -1.0175711 -0.17152043 -0.23130187
000180 4b e2 58 bf 47 ab be be fa 65 be bf cd 46 72 bf
       -0.84720296 -0.3724005 -1.4874871 -0.94639283
000190 a1 9f a4 bf eb b9 11 be 43 dc 1b be b9 fe 56 bf
       -1.2861215 -0.14231078 -0.15220742 -0.83982426
0001a0 26 b4 5c bf e5 56 c4 bf 7e 0f 84 bf eb a4 82 bf
       -0.86212385 -1.5339018 -1.0317228 -1.0206579
0001b0 19 60 92 be 9f 13 c7 bf 49 72 bd bf a3 94 a8 be
       -0.28588942 -1.5552863 -1.4800502 -0.329259
0001c0 cc b0 46 bf 72 c6 c2 bd 32 d1 86 bd 4c 6c 08 bf
       -0.7761352 -0.09510507 -0.065828696 -0.5329025
0001d0 1e a5 a0 be c5 e1 35 bf 8b cf 5d bf 1f 6c a0 be
       -0.31375974 -0.7104762 -0.8664481 -0.3133249
0001e0 07 93 ee bd ea 18 c2 3c af b7 bc bf 46 a8 03 bf
       -0.11649137 0.02369352 -1.4743556 -0.5142864
0001f0 47 ef 80 be d4 01 41 bf 38 ec 0a be c6 b4 5c bf
       -0.25182554 -0.75393414 -0.13566673 -0.8621334
000200 1e 89 df 3c 54 42 3b bf 7e fd b2 bf 0d aa a7 be
       0.027287062 -0.73148084 -1.398361 -0.32746926
000210 ba 45 9f bf 99 d9 8f bd 82 51 bb bf a5 1d 62 bf
       -1.2443154 -0.07023925 -1.4634249 -0.88326484
000220 93 74 44 bf 0a 6b 1f c0 ea 65 40 bf 7c a0 94 bf
       -0.7674038 -2.4909081 -0.7515551 -1.1611476
000230 cc 1c 49 bf c8 60 b8 bf 9c 58 27 bf 71 5b 0d 3d
       -0.78559566 -1.4404535 -0.6536958 0.034511033
000240 03 5b 3b bf ec 0d cf be e8 85 bc 3d bd 71 06 be
       -0.7318575 -0.4044031 0.09205228 -0.13129325
000250 52 72 bd bf 13 90 82 bf c9 05 bb bd 32 67 84 bf
       -1.4800513 -1.0200218 -0.09131963 -1.0343993
000260 6c 33 31 bf fe 41 a1 bf 51 89 9f 3e 10 cb 78 be
       -0.6921909 -1.2598264 0.31159452 -0.24296212
000270 50 7c b0 bf 1f d1 3c bf 5e 93 07 3e f0 af 8d bf
       -1.3787937 -0.73756593 0.1323981 -1.1069317
000280 81 38 be be f5 77 34 3c b3 60 a2 bf 33 bb 43 bf
       -0.37152484 0.011014928 -1.268576 -0.7645752
000290 a5 a6 5d bf 22 85 a7 bf 88 80 8e bf cb 2b 07 be
       -0.86582404 -1.3087504 -1.1132975 -0.132003
0002a0 c1 c1 c7 be 85 62 5a 3d ca 2e 4c be 69 53 f4 bc
       -0.3901501 0.05331661 -0.19939724 -0.02982493
0002b0 31 0f 97 bf 03 7a 6d bf 9d 89 d7 3d 87 6a 78 bf
       -1.1801511 -0.927643 0.105242945 -0.9703755
0002c0 81 90 f6 bd 36 4f c1 3c 8b a2 59 bf 09 42 b6 bf
       -0.12039281 0.023597341 -0.85013646 -1.4238902
0002d0 84 6f 43 bf 6a f0 59 3e e6 e5 64 bf c9 83 50 bf
       -0.76342034 0.21283117 -0.894133 -0.8145109
0002e0 7c 76 df bd a5 0e 84 3d 98 37 31 be ab a4 38 bf
       -0.10911271 0.06448106 -0.17306364 -0.72126263
0002f0 da da a8 bf f6 0e 08 be ba 83 68 bf 6d 09 05 3d
       -1.3191788 -0.13286957 -0.90826 0.032479692
000300 cd 5f 6e 3d 0a 6c 1c c0 9c 4a 84 bf 33 b1 a2 3d
       0.05819683 -2.4440942 -1.0335269 0.07943954
000310 28 52 50 be 5d 46 a2 bf c3 f9 33 3d 7a 85 cc bf
       -0.2034384 -1.2677723 0.043939363 -1.5978234
000320 cc ac 40 bf cb d2 9c be 16 ee 33 be a2 1c b1 bf
       -0.7526367 -0.30629572 -0.17571291 -1.3836863
000330 74 b6 98 3d e3 13 93 bf 93 94 57 bf cd f4 dd 3e
       0.07456675 -1.1490444 -0.8421108 0.4335083
000340 27 3e e2 bf 10 a1 96 bf 9c 03 ee bd 11 1f 5b bf
       -1.7675217 -1.1767902 -0.11621782 -0.8559428
000350 4b 3c 92 bf 19 25 27 bf 43 bb b7 bf 59 99 1d bf
       -1.142465 -0.6529098 -1.4354023 -0.61562115
000360 6c 8b de bf 70 1d 35 3e 0a b5 e2 bb 20 5d b5 be
       -1.7386298 0.17687011 -0.006918554 -0.3542261
000370 a0 58 82 bd c4 9e 46 bf b8 91 4c bf bd 3a c0 bf
       -0.0636456 -0.7758601 -0.7990985 -1.5017926
000380 0f 5a 4f bf d2 19 c7 bf ae d1 8c bf 96 0d 24 bf
       -0.80996794 -1.5554755 -1.1001489 -0.6408323
000390 ec a2 c2 bf b3 e2 a5 bf 32 02 35 be 5a ba 95 bf
       -1.520597 -1.2959808 -0.17676619 -1.1697495
0003a0 50 49 f6 be b6 17 1d bf f2 57 64 bf c5 55 3a bf
       -0.48102808 -0.61364305 -0.89196694 -0.72787124
0003b0 90 40 2f be 2a f7 c7 bd 7a cf 30 bf b7 a7 39 bf
       -0.17114472 -0.0976394 -0.69066584 -0.7252154
0003c0 f5 f1 ab bf d0 84 81 3d 4e 29 4b be 4b 70 95 bf
       -1.3433214 0.0632416 -0.19839975 -1.1674894
0003d0 ea 05 23 bf a0 64 f4 be c3 b3 b8 bf d2 02 a6 be
       -0.636809 -0.4773302 -1.4429859 -0.32424027
0003e0 b3 4a 8b be 08 80 b0 bf fb f6 bd bf 8e 05 a8 bf
       -0.27205428 -1.3789072 -1.4840997 -1.3126695
0003f0 20 1f 15 bf 09 3b a0 be f8 6c 10 bf 23 f5 44 bf
       -0.5825062 -0.3129504 -0.56416273 -0.7693655

net.1.running_mean f4 [256]
000000 22 41 ad 3d 27 ee 52 3e ea 46 32 be 59 3c fb bd
       0.08459689 0.2059866 -0.17409864 -0.1226737
000010 5b cb 25 3e c2 4b a4 3d fe 98 49 3e c0 34 03 be
       0.16190855 0.08022262 0.19687268 -0.12813091
000020 69 bd 07 3d 4b 77 96 bd 26 72 d1 3d 8b 9f 3a 3e
       0.03313962 -0.07346972 0.1022685 0.18224923
000030 e8 6e 8c bd e4 6a 7d 3e aa 62 14 be 82 56 86 3d
       -0.06857091 0.24747807 -0.14490762 0.06559469
000040 93 6c 03 bd a1 b1 e2 3d b6 a4 8e 3e a0 07 26 3b
       -0.032085966 0.11069036 0.2786004 0.0025334135
000050 cb ff 2a 3e e0 65 e5 3c b8 de c5 3b c9 1b 1b be
       0.1669914 0.02800268 0.006038513 -0.15147318
000060 7c 16 da bd 62 7f db bd 75 94 3a 3e c0 c8 a3 3d
       -0.1064882 -0.10717656 0.18220694 0.079972744
000070 ff 50 73 3e 32 b7 94 bd 04 59 2d be 37 4c 32 bd
       0.23761366 -0.07261504 -0.16928488 -0.043529715
000080 6c 52 ab bd cc 3e 1d 3e 76 75 d1 3d 90 18 32 3e
       -0.0836533 0.15355986 0.10227482 0.17392182
000090 52 b0 2c bd 5b c3 fc 3d cc e9 03 bd 61 d5 5d 3d
       -0.04216034 0.123419486 -0.032205388 0.054158572
0000a0 8b 0f 83 be c7 36 c9 3e ab 9e 55 3e 4e ac 4d bb
       -0.25597796 0.39299604 0.20861308 -0.003138322
0000b0 9a 90 15 3e dd 65 5b 3e 58 be 3a 3d 26 d6 a3 3c
       0.14605942 0.21425577 0.045591682 0.019999575
0000c0 a7 61 73 be 9a f1 57 be 95 99 66 3e 60 e5 58 3e
       -0.2376772 -0.21088257 0.22519524 0.2118125
0000d0 6c 16 02 bc 6e da 16 be 96 bd 05 3d f3 73 8d 3e
       -0.007939916 -0.14731762 0.032651506 0.27627525
0000e0 2c 3f 7e be 07 6c d2 bc 2b bd 07 bf 24 93 03 3e
       -0.24828786 -0.025686277 -0.5302302 0.12849098
0000f0 c1 a0 93 3e a1 a0 29 3e 6d d2 6f 3c a3 7f e3 3d
       0.28833583 0.16565181 0.014637572 0.11108329
000100 e9 a5 80 3e c7 44 82 be db 5b 0d be 91 e7 8a bc
       0.2512658 -0.25443098 -0.13804571 -0.016956123
000110 68 a8 50 be b0 8f 45 3e 0b 1e 1e be 6d 2e 96 bd
       -0.20376742 0.19293094 -0.15441148 -0.07333074
000120 c1 39 21 3e 19 eb 26 bd 2f b9 d6 bd 8d 8f cd bd
       0.15744688 -0.04075155 -0.1048454 -0.10037146
000130 d9 ce 7d be 90 1c 15 be 5e f6 43 be 23 6f 4a 3e
       -0.24785937 -0.14561677 -0.1913695 0.19768958
000140 98 cf 18 be af ef 50 3e 3d 17 a9 bd 79 1e c3 bc
       -0.1492294 0.20403932 -0.082563855 -0.023818241
000150 63 80 db bd 1b e6 b7 bc 8d 23 51 3d 84 82 22 be
       -0.10717847 -0.02244859 0.051059294 -0.158701
000160 68 63 98 3d f9 8e d7 3c 50 b9 10 bc 7b 98 5b 3e
       0.07440835 0.026313292 -0.008833244 0.21444885
000170 15 e5 86 bd ad 31 4b bc 27 33 f0 3d fe 54 ce 3d
       -0.06586663 -0.01240198 0.117285065 0.10074805
000180 96 62 7d 3e f6 f2 28 bd 0f 92 46 3e de f9 15 3e
       0.24744639 -0.04124733 0.19391654 0.14646098
000190 b7 05 f9 3d fa ea 8d 3e 13 b7 20 3e 43 dd 26 3e
       0.12159293 0.27718335 0.15694837 0.16295342
0001a0 52 c2 91 3d 54 34 25 3e b8 e5 68 be fd 75 1d 3c
       0.07117142 0.16133243 -0.22743881 0.00961065
0001b0 28 55 c9 bd 57 e9 8f 3e a5 30 66 be 55 bc 50 3e
       -0.098306954 0.28107712 -0.22479494 0.20384343
0001c0 49 48 e0 3c dc b2 aa 3d 04 22 3f 3e 7f 1b 45 bd
       0.027378218 0.08334896 0.1866532 -0.048121925
0001d0 ef 97 82 3e 58 ec be 3d 02 c3 06 3e 1f 01 21 be
       0.2550654 0.09322423 0.13160327 -0.15723084
0001e0 7d 2d ce bd ba 27 6f bd 55 c0 b5 bd 46 8b 26 3e
       -0.1006727 -0.058387496 -0.08874575 0.16264066
0001f0 f3 05 3f 3e 20 ed 79 3e df 95 b9 3d 07 6a f2 bd
       0.18654613 0.24406862 0.09061789 -0.11836629
000200 90 39 4b 3e eb 17 05 be 11 83 02 3e 53 7d 1c be
       0.19846177 -0.12997405 0.1274531 -0.15282182
000210 14 de 86 3e 0d 4e e5 3d 26 72 e2 bd 8b 2e 38 be
       0.26341307 0.11196528 -0.11056928 -0.17986505
000220 5b b1 d5 bd 70 c5 ab 3e 7e 32 57 3e 40 fb 18 bc
       -0.104342185 0.3354907 0.21015355 -0.009337246
000230 65 db 53 bd d3 53 25 be ee 76 01 3d cd f7 6e be
       -0.051722903 -0.16145258 0.03160756 -0.23336716
000240 4c 55 60 be ef 6a 53 3e 85 a2 63 3e a9 f4 ce 3d
       -0.21907538 0.2064626 0.22229965 0.10105259
000250 8d fa 84 3e bd 86 40 be f4 9e 29 bc c4 05 92 3d
       0.25972405 -0.18801399 -0.010352839 0.07130006
000260 e7 ca 3a be b6 06 4c be 8a 21 cb bd ed bc 11 bb
       -0.18241464 -0.19924435 -0.099185064 -0.0022237853
000270 d7 d5 e0 bd 75 f8 30 3c 5e 4a 54 3e ca 35 9d be
       -0.10978287 0.010801424 0.20731494 -0.307051
000280 2c e2 5f bd 49 55 15 3d 2d c4 16 3d 65 d2 1c be
       -0.054659054 0.036458287 0.03680818 -0.15314634
000290 b2 b4 45 3e 37 d8 5e 3e f5 5c 7b bd 46 78 36 be
       0.19307211 0.21762167 -0.061367948 -0.17819318
0002a0 da 8e 29 3a 6b 30 45 3e 9c 94 b5 bd d1 1c ef bd
       0.0006468125 0.19256751 -0.088662356 -0.11675418
0002b0 2d 5b 30 3e db 14 81 be dd 96 45 be ba e7 d6 be
       0.17222281 -0.25211224 -0.19295831 -0.41973668
0002c0 f6 a3 74 be 61 ca 03 be cc 11 36 be 7a af 29 be
       -0.23890671 -0.1287017 -0.17780226 -0.16570845
0002d0 eb 6d 20 be 07 4e ee 3d 20 80 26 be 23 9b 35 be
       -0.1566693 0.11635976 -0.16259813 -0.17734961
0002e0 04 05 86 3a 75 2f 67 3e 9d d5 9e be 6f 74 a7 3e
       0.0010224883 0.22576697 -0.3102235 0.3270602
0002f0 46 15 c9 3c 6f ae 42 3c e6 ea 84 3e f7 42 1f be
       0.024546277 0.0118824085 0.25960463 -0.15552889
000300 62 c9 2d 3e a6 a4 35 3e ca ad 09 be f5 b7 49 be
       0.16971353 0.1773859 -0.13445202 -0.1969908
000310 47 bc 60 3e 34 c4 81 bd cc b4 02 3e 99 f5 00 3e
       0.21946822 -0.06336251 0.12764281 0.12593688
000320 53 2b ba be 73 b9 6d 3b 4f 28 4d 3e 3d 73 cd 3d
       -0.3636118 0.0036273866 0.20034908 0.100317456
000330 23 00 8e be b7 cc 77 3e ce 75 11 3d 26 71 12 3e
       -0.2773448 0.24199186 0.035512738 0.14300975
000340 94 0e 9d bc f3 f9 20 bd 21 66 9e 3c 95 77 b5 3d
       -0.01917199 -0.03930087 0.019335808 0.08860699
000350 19 da 44 3d c5 71 30 3e fb 0d 0b be 9a 94 aa bd
       0.048059557 0.172309 -0.13579552 -0.08329125
000360 7d fe 52 3c f8 44 fe 3b d2 22 94 3e 72 ad 4f 3e
       0.012878058 0.0077596866 0.28932816 0.20281008
000370 29 42 76 3b d3 e2 5a be 9d 64 61 3e 27 9c 9a bd
       0.0037576056 -0.21375589 0.22011037 -0.07549315
000380 fd 7f 50 be 7d 0e 41 be 59 c8 35 3e 65 27 6c 3e
       -0.20361324 -0.18853183 0.17752208 0.23061903
000390 8a b4 c8 bd 2f 78 33 be 95 6f 83 3d 82 30 8e 3d
       -0.0980006 -0.17526315 0.06417767 0.06942846
0003a0 d6 d1 8e bd ef ee 54 3e cc cb 44 be 28 c7 5f bd
       -0.06973617 0.20794271 -0.19218367 -0.05463329
0003b0 98 13 a5 3d d2 2f 82 be 2d 59 22 3e 24 c0 ea 3d
       0.08060378 -0.2542711 0.1585433 0.11462429
0003c0 bf 9a 2d 3d b6 7e 18 3e 34 95 87 3e c3 58 89 be
       0.042383906 0.14892086 0.2648102 -0.26825532
0003d0 cb 1f 63 3d a2 e4 e0 bc 85 27 5e 3e 55 74 a2 3e
       0.055450242 -0.02745277 0.21694763 0.3172938
0003e0 ec c2 1a 3e c7 c6 90 3d 32 4a d1 3d 85 a0 93 3d
       0.1511342 0.07069164 0.1021923 0.07208351
0003f0 4f 84 05 3e 3e 86 88 bd a5 c1 16 3e cf 8f 4c 3b
       0.13038753 -0.0666623 0.14722307 0.0031213646

net.1.running_var f4 [256]
000000 e6 2f 33 41 eb 36 8f 41 91 f2 85 42 fb 62 d3 41
       11.199194 17.901815 66.97376 26.42333
000010 a3 a3 8f 40 cd 0a bf 41 86 8a c2 41 05 dc 4b 42
       4.488725 23.880274 24.317638 50.964863
000020 d5 d4 15 42 67 33 a7 41 5f 62 11 42 75 70 62 42
       37.457844 20.900099 36.346066 56.60982
000030 5e 57 eb 40 db a0 18 42 bc 61 1e 42 ca 75 01 42
       7.354415 38.157085 39.595444 32.36503
000040 64 2b 29 42 21 7a 95 41 84 d8 40 42 90 1a 86 42
       42.292374 18.684633 48.21144 67.05188
000050 ab 63 60 41 f5 0a 80 41 52 45 13 42 45 5b 47 42
       14.024333 16.00535 36.817696 49.83913
000060 b0 13 97 41 b9 cc d1 41 94 69 49 42 8e ad 48 42
       18.884613 26.224962 50.353104 50.169487
000070 c5 b3 3f 40 5c 00 90 41 e4 65 83 41 0a 17 a1 42
       2.9953473 18.000175 16.424751 80.545
000080 03 43 86 41 81 91 18 42 09 9d 80 42 11 6a cf 41
       16.78272 38.142094 64.30671 25.92679
000090 8e ee a7 42 01 d8 c4 41 0e 15 da 41 9b 28 e2 40
       83.96593 24.60547 27.26028 7.0674567
0000a0 c3 ff 8d 43 c2 d6 b2 42 e4 4c 25 41 bf 2e ff 41
       283.99814 89.41945 10.331272 31.897825
0000b0 8d dc 7c 42 8a 4b b2 41 26 6a 82 41 1d 8d 3b 41
       63.21538 22.286884 16.30183 11.7219515
0000c0 9c 61 c6 42 53 94 b3 41 bc 30 8b 41 1c 75 a3 41
       99.19064 22.447424 17.398796 20.432182
0000d0 e4 85 e2 41 c6 57 ff 40 be 05 4e 41 6f 8d 33 42
       28.315376 7.9794645 12.876402 44.88812
0000e0 c4 c1 56 41 46 8c 4e 42 6a 10 84 43 e0 53 01 42
       13.422306 51.636986 264.12823 32.33191
0000f0 38 f1 1d 42 82 46 ba 41 bf ce c8 41 2b 60 92 41
       39.485565 23.284428 25.10095 18.296957
000100 5c e7 25 41 ac 7f 5a 41 07 b0 68 41 54 d8 09 42
       10.368984 13.65617 14.542975 34.461258
000110 3b f8 58 42 c1 76 53 41 20 c6 c5 41 bd 41 bc 41
       54.242413 13.216493 24.72174 23.532099
000120 23 2d bd 41 03 ad a6 42 77 fc 4c 42 8c 59 a1 41
       23.64704 83.33791 51.246548 20.168724
000130 42 54 30 42 c3 49 89 41 39 8f e2 41 44 e3 3f 42
       44.082283 17.161016 28.319933 47.97194
000140 c6 b3 9c 41 43 23 dc 41 73 01 33 42 1d d5 5f 42
       19.58778 27.517218 44.751415 55.95812
000150 36 d5 38 42 b4 02 55 41 d2 a3 52 41 3b 2b 70 41
       46.208214 13.31316 13.164995 15.010554
000160 d3 09 53 42 e7 7f 2d 41 6f 9d 45 42 b1 6c 83 42
       52.759594 10.843726 49.403744 65.71229
000170 05 af 8a 43 eb 7e 58 42 8f 7a 7b 41 3a 64 58 42
       277.36734 54.123943 15.717422 54.097878
000180 45 93 25 41 54 c2 93 42 5e b4 cb 42 d8 2a 0b 42
       10.348454 73.87955 101.85228 34.79184
000190 a8 65 2a 41 4f d5 8d 41 9a b9 07 41 ee 69 88 42
       10.649818 17.729155 8.482813 68.206894
0001a0 0d 97 54 40 29 99 fb 41 fd 1c b8 43 45 60 00 42
       3.3217194 31.449785 368.22647 32.094013
0001b0 fd b9 6c 42 67 84 bf 41 f4 52 5d 41 3d c1 5b 42
       59.18163 23.93965 13.832752 54.93871
0001c0 55 54 08 43 98 37 7c 42 b2 9c 1d 42 63 0b 61 41
       136.32942 63.05429 39.403023 14.06528
0001d0 9a cd 26 42 f7 a4 3e 41 71 a3 d5 40 af 6e 6d 42
       41.700783 11.915275 6.6762013 59.35809
0001e0 af 72 dd 41 e0 b0 c9 41 3a c5 13 43 99 75 32 40
       27.680998 25.211365 147.77042 2.7884276
0001f0 35 ce 44 42 36 87 26 41 e1 ac 33 42 0f a3 8f 43
       49.201374 10.4080105 44.918827 287.2739
000200 27 eb be 42 2b a8 2c 42 29 c3 19 41 20 02 75 40
       95.45928 43.164227 9.6101465 3.8282547
000210 52 49 0f 43 ad d3 fd 41 65 88 4c 43 17 2f b9 42
       143.2864 31.728357 204.53279 92.59197
000220 29 d9 7e 42 b2 ab 94 41 f3 84 83 41 86 5f d1 41
       63.71207 18.583836 16.439917 26.171642
000230 19 3b 5e 40 c2 97 ba 41 bb 9c 5d 42 43 c2 05 42
       3.472357 23.3241 55.403057 33.43971
000240 f4 cc b5 42 c1 91 ee 41 27 8c ab 41 2b a0 95 42
       90.9003 29.821169 21.443434 74.81283
000250 1c 16 ce 41 fd fd 93 41 f5 9f 81 41 a8 68 c8 41
       25.760796 18.499018 16.203104 25.051102
000260 57 90 f2 41 80 f3 33 41 70 33 32 42 2b 82 05 41
       30.320478 11.246948 44.550232 8.344279
000270 b2 64 cc 42 c7 61 8b 41 98 0c 27 41 2a 18 e2 42
       102.19667 17.422743 10.440575 113.047195
000280 67 75 b2 42 85 b9 f1 41 f6 43 47 41 ee fb ae 41
       89.2293 30.215586 12.454092 21.873013
000290 1c bf 25 42 fa 3c ec 42 fa f4 bd 41 c1 56 3d 40
       41.43663 118.119095 23.744617 2.95842
0002a0 1a 33 43 42 d5 ad 66 42 3e 54 5e 42 ca ea d1 41
       48.799904 57.669758 55.582268 26.239643
0002b0 34 91 cf 41 ed fa c0 42 d0 05 9a 42 21 6f bb 42
       25.9459 96.49009 77.01135 93.71705
0002c0 93 73 98 41 08 8e 38 42 71 08 2c 43 7d cb ce 41
       19.056433 46.138702 172.03297 25.84936
0002d0 db d3 bb 41 03 80 c8 42 97 f6 97 41 53 b5 34 42
       23.478445 100.25002 18.995405 45.177074
0002e0 a4 29 8d 41 b5 94 08 42 bf 18 1d 42 6e f3 8a 41
       17.645332 34.14522 39.274166 17.368862
0002f0 12 a9 88 41 67 c9 76 42 a4 96 eb 41 19 ef c9 41
       17.082554 61.696682 29.448555 25.241747
000300 5c 85 43 41 04 b3 2a 41 0b 58 7c 41 f5 e9 9e 41
       12.220058 10.668705 15.771495 19.864237
000310 a4 50 88 42 63 1a b3 42 95 fa 84 42 d2 f0 7e 41
       68.1575 89.55154 66.48942 15.933794
000320 70 34 5b 43 f5 b3 2f 40 d0 a3 f2 41 e6 23 51 41
       219.20483 2.7453587 30.329987 13.071264
000330 2d b5 b9 41 ba 5e 10 42 3f 85 d4 42 47 25 5f 42
       23.213465 36.092506 106.26025 55.786404
000340 88 9f 5f 41 4b 5b bb 41 86 df 80 42 94 1b 53 42
       13.976448 23.419577 64.43657 52.77693
000350 6a d9 88 41 b5 5a 49 40 67 59 9d 42 6b 02 98 3f
       17.10616 3.1461613 78.674614 1.1875738
000360 2e 95 f6 41 e4 f2 8a 42 8c 3e 71 41 ba 85 78 40
       30.822842 69.474396 15.07777 3.883162
000370 20 b1 e9 41 07 9f 4a 43 0e 47 04 41 c2 07 c7 41
       29.211487 202.6212 8.267347 24.878788
000380 8a 6f af 41 c8 23 52 41 09 01 66 41 fc 23 02 41
       21.929462 13.133736 14.375253 8.133785
000390 72 10 ce 41 43 a4 86 41 79 3d 00 42 21 32 33 41
       25.75803 16.830206 32.06003 11.1997385
0003a0 8b 31 87 40 29 15 56 42 f8 ea 8f 43 4a db 27 42
       4.2247977 53.520664 287.8357 41.96415
0003b0 34 6b cc 41 23 8b b1 41 8a c6 d3 41 55 ef 33 41
       25.552345 22.192938 26.471943 11.245931
0003c0 f8 76 47 42 65 fc d4 41 1a 59 08 42 8f 0c f9 41
       49.86618 26.62324 34.087013 31.131132
0003d0 b9 42 3d 40 d5 1f f7 40 51 65 6a 42 3e 66 f8 41
       2.9571974 7.7226357 58.59894 31.049923
0003e0 8e da 16 42 46 07 cf 41 11 3a 56 42 b1 97 82 42
       37.713432 25.878551 53.556705 65.29627
0003f0 21 3d c8 40 d0 3d b0 41 ea 13 89 42 0c 89 14 42
       6.257462 22.030182 68.538895 37.133835

net.4.weight f4 [128, 256]
000000 63 d5 ae 3f 45 2a c4 bf 24 57 4c 3f 09 8e 21 be
       1.365887 -1.53254 0.79820466 -0.15776838
000010 4c 6e 4b 3b a0 d2 7b 3f db 5b dd 3e e8 25 d9 3f
       0.0031041084 0.98368263 0.43234143 1.6964693
000020 73 b7 4e be fe 25 af 3e 90 0b 44 3f b4 fb 71 bd
       -0.20187168 0.34208673 0.7658014 -0.059077933
000030 68 82 c7 3e fc ad 8e 3f 29 37 73 3f 40 b1 18 3d
       0.3896668 1.1146846 0.9500604 0.037278414
000040 8b 2f f9 3e c6 7e 44 3e 6f b0 05 40 88 19 6b 3e
       0.48669085 0.19188985 2.0888937 0.22958958
000050 f6 a4 b0 3e 46 47 23 be 33 25 50 3f 37 44 86 bf
       0.34500855 -0.15945157 0.8130676 -1.0489568
000060 0d 83 d6 be d8 74 08 3d 30 3c 37 3f 90 ae 1f bf
       -0.4189686 0.033314556 0.71576214 -0.62375736
000070 39 7e 84 be 05 1f 4b 3f e0 48 42 3f 1e 21 3f 3f
       -0.2587755 0.7934421 0.7589245 0.7465991
000080 d4 e4 3d bf aa c9 5c bd a9 76 e6 bd ca f3 85 3f
       -0.7417729 -0.05390326 -0.112531014 1.0465024
000090 32 a1 90 3d c8 ea a1 3f e7 17 0b 3f 22 d0 7c be
       0.070619956 1.2649775 0.5433335 -0.24688771
0000a0 bf 12 c5 bf 70 50 ad 3f 75 f3 3f be 20 91 0b bf
       -1.5396346 1.3540173 -0.18745215 -0.5451832
0000b0 39 5f 81 be da f0 45 3f ce 78 a6 3f 7b 4e cd 3e
       -0.25267962 0.77320635 1.3005617 0.40098938
0000c0 f8 1d e6 bb 55 32 9c 3e c4 69 40 3d 7e 3b 30 bf
       -0.0070226155 0.3050715 0.046975866 -0.6884078
0000d0 95 37 8f 3f f9 53 02 be b9 16 86 3f a3 c4 34 3f
       1.1188837 -0.12727346 1.0475684 0.70612544
0000e0 53 8f 17 be 4b a4 d2 3f c6 3c 83 bf 5c 04 26 bf
       -0.14800768 1.6456388 -1.0252922 -0.648504
0000f0 85 96 82 3f 09 dd 8e 3f 29 b1 0a 3f 0c 60 0e 3f
       1.0202185 1.1161205 0.54176575 0.55615306
000100 d3 e3 81 3f 45 2a 10 40 a1 42 fc 3f 9e 76 16 3e
       1.0147651 2.25258 1.9707834 0.14693686
000110 b2 05 b3 3f 8b ba e6 3f c9 82 5c 3d ed 25 d6 3e
       1.3986113 1.8025678 0.053835664 0.4182581
000120 3b 52 c6 bd 50 ec 99 bf 6e 65 12 bf b5 ee 08 3e
       -0.09683653 -1.2025242 -0.5718602 0.1337231
000130 d7 56 17 3f 0f 2d 68 3f 3b 6f 33 3f c9 11 4b 3e
       0.5911688 0.90693754 0.700916 0.19831003
000140 c8 03 e7 be a2 77 80 3f fc bc 5f 3f 24 65 d7 be
       -0.45120072 1.0036509 0.8739774 -0.42069352
000150 f4 fd 75 be c4 65 6d 3f b0 26 16 40 dd ac 15 3e
       -0.24022657 0.9273341 2.3461113 0.14616723
000160 dc ee 8f 3f d7 6f c0 3e f0 72 3d 3f 44 a3 1a 3f
       1.1244769 0.37585327 0.74003506 0.60405374
000170 d1 e3 76 be df de 36 3f 6a 5c 01 bf b8 53 d9 3c
       -0.24110343 0.71433824 -0.5053164 0.026529178
000180 77 c7 90 3f eb 55 45 40 8d dd 8a 3e 58 90 33 3f
       1.1310872 3.083369 0.27122155 0.70142126
000190 ae 33 37 3f 38 d9 97 be c4 4f 32 3f 1e 15 12 3e
       0.7156323 -0.29657912 0.6965296 0.14265868
0001a0 a7 45 1c be 7a 5b 5b 3f 16 a2 9e bf 63 29 32 3e
       -0.15260945 0.8568646 -1.2393215 0.173986
0001b0 0b 80 02 bf e2 15 05 3f be a8 a0 3e 78 a3 1d 3f
       -0.5097663 0.51986516 0.3137874 0.6157756
0001c0 3b 6c b7 bf 0f c2 06 40 a3 cd 22 c0 48 4f 12 3f
       -1.4329904 2.1055944 -2.543801 0.57152224
0001d0 4a 66 c3 3f b7 9b 10 3f 56 57 b0 3f 14 98 03 3f
       1.5265591 0.564876 1.3776653 0.5140393
0001e0 89 71 3b 3f f8 04 15 bf c2 9a 9d bf a6 89 7f be
       0.73220116 -0.58210707 -1.2312853 -0.24954852
0001f0 c7 ad 58 3f 1c aa 94 be ed a3 83 3f 94 1d 80 bf
       0.84640163 -0.29036033 1.0284401 -1.0009027
000200 13 40 20 3f 84 05 6f 3f 39 27 03 40 6e 58 29 be
       0.6259777 0.9336779 2.049269 -0.1653764
000210 3f 53 08 bf 1b b9 e4 be 7a ba 4e bf 95 69 c0 bf
       -0.53252023 -0.44672474 -0.8075329 -1.5032221
000220 6a 94 2b 3f 6c 0b dc be 30 a7 aa 3e ee cf 6f 3e
       0.67023337 -0.42977464 0.3333068 0.23419163
000230 8a 24 b9 3d c9 09 df 3f a7 a4 2c 3f fb b0 b3 bf
       0.090401724 1.7424861 0.6743874 -1.4038385
000240 e2 85 f5 3d 43 23 cd 3e 72 b5 23 3f ab f3 d2 3f
       0.11988427 0.40065965 0.6394874 1.6480612
000250 2f ce e4 3f b3 96 92 bf bf ff cc 3f e3 21 34 3f
       1.7875422 -1.145224 1.6015548 0.7036421
000260 83 5c a8 3f e7 e9 c9 3f 10 9e 9e be 4c 0e ab be
       1.3153232 1.5774506 -0.30979967 -0.33409345
000270 a8 72 c3 3f 15 a8 f1 be f4 17 68 3f db 9e 6c bd
       1.5269365 -0.4719855 0.9066155 -0.057768684
000280 6d 12 59 3f df 90 0b bf 4b fe 3f 3f f0 0d eb 3f
       0.8479374 -0.5451793 0.74997395 1.8363628
000290 79 0e c3 3f a8 7b 6d 3e 24 3f 35 3d 5d f1 d2 bd
       1.5238792 0.23191702 0.04424967 -0.10299943
0002a0 18 19 42 bf 4d 2b 1b 3e 35 13 8d 3f 26 81 92 3e
       -0.7581954 0.15153237 1.1021487 0.28614157
0002b0 37 3b 66 be b7 74 10 c0 2b 2f cc bf 36 34 b7 bf
       -0.22483526 -2.2571237 -1.5951895 -1.4312809
0002c0 5d a5 c5 3d 96 04 02 c0 6e 37 7f bf 96 d7 be 3f
       0.09650681 -2.03153 -0.99693954 1.4909542
0002d0 f2 d7 98 3f fc af bd 3f 9d e4 a4 3e ed ec 87 3f
       1.1940901 1.4819331 0.32205668 1.0619179
0002e0 12 4b 9d 3c 79 c4 b2 3e ad f0 6f bd 93 c1 f1 be
       0.019200835 0.34915522 -0.058579136 -0.47217998
0002f0 ff 8e 9e 3f ab b5 29 3e d3 84 18 3f 41 7f 30 bf
       1.2387389 0.16573207 0.59577674 -0.68944174
000300 42 6f 0c bf 6e 01 0b 3f 66 47 dc be 60 ff 37 3d
       -0.54857266 0.54299057 -0.43023223 0.04492128
000310 2b 77 da 3f f3 2c 8a 3d bd 01 b6 bf 02 56 3c 3e
       1.7067617 0.06746855 -1.421928 0.18392184
000320 b0 e2 a2 bf d3 de 4b bb 87 60 7f be be 8d fc 3f
       -1.272543 -0.0031108155 -0.24939166 1.9730756
000330 df e1 4d bf 29 a8 a0 3f 3a a4 c2 3e 09 85 1e bf
       -0.80422777 1.2551318 0.3801592 -0.61921746
000340 74 21 0f 3f 77 ab d1 3f a5 08 0d 40 d8 4e 57 3e
       0.5591042 1.6380452 2.2036526 0.2102617
000350 33 8a b8 3f d1 8d 87 be d9 03 25 be 41 78 82 3c
       1.4417175 -0.26475385 -0.16114749 0.015926482
000360 f7 a0 3f 3f 8c 04 cf 3f 27 a6 96 3f ed a0 87 be
       0.7485499 1.6173263 1.1769456 -0.26489964
000370 5d 33 cb bf e3 91 2b bf 86 0f 0f bb 79 9a 40 bf
       -1.587505 -0.6701948 -0.002182932 -0.75235707
000380 aa f2 4f 3f 16 2c db bd 98 d3 0a 40 31 e2 9f 3f
       0.8122965 -0.10701768 2.1691647 1.2490903
000390 a4 0e c9 3e 18 05 0c 40 79 96 ec be 94 42 d2 be
       0.39268982 2.187811 -0.46208552 -0.4106642
0003a0 15 80 ce 3d a4 65 7b 3f f2 1a 91 bf 24 b2 e3 be
       0.100830235 0.98201966 -1.1336348 -0.44471848
0003b0 53 bf 9d 3f 22 e1 ab bf b5 2e 9c 3f f5 62 0e 40
       1.2324013 -1.342808 1.2201754 2.2247899
0003c0 b4 4e a8 3e 57 01 a0 bf 33 bb 15 3e 86 32 b1 3e
       0.32872546 -1.2500409 0.14622192 0.3460886
0003d0 2c 79 3e 3e 47 45 4a 3f c5 0f 99 bf 99 a8 3f 3f
       0.18600911 0.7901196 -1.1957937 0.74866635
0003e0 15 de 50 bf 3e 57 92 3e e1 66 d9 3e c3 aa 09 3f
       -0.8158887 0.28582186 0.42461303 0.53776187
0003f0 fd 50 8e 3f 03 6c ee bb 2e e2 d3 3f 0f fe 2c bf
       1.1118466 -0.0072760596 1.65534 -0.6757516
